program(1.3)
[buildInfo = dict<string, string>({{"coremlc-component-MIL", "3520.4.1"}, {"coremlc-version", "3520.5.1"}, {"coremltools-component-torch", "2.7.0"}, {"coremltools-source-dialect", "TorchScript"}, {"coremltools-version", "9.0"}})]
{
    func main<ios18>(tensor<fp32, [1, 3, 224, 224]> pixel_values) {
            string var_30_pad_type_0 = const()[name = string("op_30_pad_type_0"), val = string("valid")];
            tensor<int32, [2]> var_30_strides_0 = const()[name = string("op_30_strides_0"), val = tensor<int32, [2]>([14, 14])];
            tensor<int32, [4]> var_30_pad_0 = const()[name = string("op_30_pad_0"), val = tensor<int32, [4]>([0, 0, 0, 0])];
            tensor<int32, [2]> var_30_dilations_0 = const()[name = string("op_30_dilations_0"), val = tensor<int32, [2]>([1, 1])];
            int32 var_30_groups_0 = const()[name = string("op_30_groups_0"), val = int32(1)];
            string pixel_values_to_fp16_dtype_0 = const()[name = string("pixel_values_to_fp16_dtype_0"), val = string("fp16")];
            tensor<fp16, [384, 3, 14, 14]> model_embeddings_patch_embeddings_projection_weight_to_fp16 = const()[name = string("model_embeddings_patch_embeddings_projection_weight_to_fp16"), val = tensor<fp16, [384, 3, 14, 14]>(BLOBFILE(path = string("@model_path/weights/weight.bin"), offset = uint64(64)))];
            tensor<fp16, [384]> model_embeddings_patch_embeddings_projection_bias_to_fp16 = const()[name = string("model_embeddings_patch_embeddings_projection_bias_to_fp16"), val = tensor<fp16, [384]>(BLOBFILE(path = string("@model_path/weights/weight.bin"), offset = uint64(451712)))];
            tensor<fp16, [1, 3, 224, 224]> pixel_values_to_fp16 = cast(dtype = pixel_values_to_fp16_dtype_0, x = pixel_values)[name = string("cast_50")];
            tensor<fp16, [1, 384, 16, 16]> var_30_cast_fp16 = conv(bias = model_embeddings_patch_embeddings_projection_bias_to_fp16, dilations = var_30_dilations_0, groups = var_30_groups_0, pad = var_30_pad_0, pad_type = var_30_pad_type_0, strides = var_30_strides_0, weight = model_embeddings_patch_embeddings_projection_weight_to_fp16, x = pixel_values_to_fp16)[name = string("op_30_cast_fp16")];
            tensor<int32, [3]> concat_0 = const()[name = string("concat_0"), val = tensor<int32, [3]>([1, 384, 256])];
            tensor<fp16, [1, 384, 256]> var_33_cast_fp16 = reshape(shape = concat_0, x = var_30_cast_fp16)[name = string("op_33_cast_fp16")];
            tensor<int32, [3]> embeddings_1_perm_0 = const()[name = string("embeddings_1_perm_0"), val = tensor<int32, [3]>([0, 2, 1])];
            int32 var_38 = const()[name = string("op_38"), val = int32(1)];
            bool embeddings_3_interleave_0 = const()[name = string("embeddings_3_interleave_0"), val = bool(false)];
            tensor<fp16, [1, 1, 384]> model_embeddings_cls_token_to_fp16 = const()[name = string("model_embeddings_cls_token_to_fp16"), val = tensor<fp16, [1, 1, 384]>(BLOBFILE(path = string("@model_path/weights/weight.bin"), offset = uint64(452544)))];
            tensor<fp16, [1, 256, 384]> embeddings_1_cast_fp16 = transpose(perm = embeddings_1_perm_0, x = var_33_cast_fp16)[name = string("transpose_120")];
            tensor<fp16, [1, 257, 384]> embeddings_3_cast_fp16 = concat(axis = var_38, interleave = embeddings_3_interleave_0, values = (model_embeddings_cls_token_to_fp16, embeddings_1_cast_fp16))[name = string("embeddings_3_cast_fp16")];
            tensor<fp16, [1, 257, 384]> static_position_embeddings_to_fp16 = const()[name = string("static_position_embeddings_to_fp16"), val = tensor<fp16, [1, 257, 384]>(BLOBFILE(path = string("@model_path/weights/weight.bin"), offset = uint64(453376)))];
            tensor<fp16, [1, 257, 384]> input_3_cast_fp16 = add(x = embeddings_3_cast_fp16, y = static_position_embeddings_to_fp16)[name = string("input_3_cast_fp16")];
            tensor<int32, [1]> hidden_states_1_axes_0 = const()[name = string("hidden_states_1_axes_0"), val = tensor<int32, [1]>([-1])];
            tensor<fp16, [384]> model_encoder_layer_0_norm1_weight_to_fp16 = const()[name = string("model_encoder_layer_0_norm1_weight_to_fp16"), val = tensor<fp16, [384]>(BLOBFILE(path = string("@model_path/weights/weight.bin"), offset = uint64(650816)))];
            tensor<fp16, [384]> model_encoder_layer_0_norm1_bias_to_fp16 = const()[name = string("model_encoder_layer_0_norm1_bias_to_fp16"), val = tensor<fp16, [384]>(BLOBFILE(path = string("@model_path/weights/weight.bin"), offset = uint64(651648)))];
            fp16 var_46_to_fp16 = const()[name = string("op_46_to_fp16"), val = fp16(0x1.1p-20)];
            tensor<fp16, [1, 257, 384]> hidden_states_1_cast_fp16 = layer_norm(axes = hidden_states_1_axes_0, beta = model_encoder_layer_0_norm1_bias_to_fp16, epsilon = var_46_to_fp16, gamma = model_encoder_layer_0_norm1_weight_to_fp16, x = input_3_cast_fp16)[name = string("hidden_states_1_cast_fp16")];
            tensor<fp16, [384, 384]> model_encoder_layer_0_attention_attention_key_weight_to_fp16 = const()[name = string("model_encoder_layer_0_attention_attention_key_weight_to_fp16"), val = tensor<fp16, [384, 384]>(BLOBFILE(path = string("@model_path/weights/weight.bin"), offset = uint64(652480)))];
            tensor<fp16, [384]> model_encoder_layer_0_attention_attention_key_bias_to_fp16 = const()[name = string("model_encoder_layer_0_attention_attention_key_bias_to_fp16"), val = tensor<fp16, [384]>(BLOBFILE(path = string("@model_path/weights/weight.bin"), offset = uint64(947456)))];
            tensor<fp16, [1, 257, 384]> linear_0_cast_fp16 = linear(bias = model_encoder_layer_0_attention_attention_key_bias_to_fp16, weight = model_encoder_layer_0_attention_attention_key_weight_to_fp16, x = hidden_states_1_cast_fp16)[name = string("linear_0_cast_fp16")];
            tensor<int32, [4]> var_102 = const()[name = string("op_102"), val = tensor<int32, [4]>([1, -1, 6, 64])];
            tensor<fp16, [1, 257, 6, 64]> var_103_cast_fp16 = reshape(shape = var_102, x = linear_0_cast_fp16)[name = string("op_103_cast_fp16")];
            tensor<fp16, [384, 384]> model_encoder_layer_0_attention_attention_value_weight_to_fp16 = const()[name = string("model_encoder_layer_0_attention_attention_value_weight_to_fp16"), val = tensor<fp16, [384, 384]>(BLOBFILE(path = string("@model_path/weights/weight.bin"), offset = uint64(948288)))];
            tensor<fp16, [384]> model_encoder_layer_0_attention_attention_value_bias_to_fp16 = const()[name = string("model_encoder_layer_0_attention_attention_value_bias_to_fp16"), val = tensor<fp16, [384]>(BLOBFILE(path = string("@model_path/weights/weight.bin"), offset = uint64(1243264)))];
            tensor<fp16, [1, 257, 384]> linear_1_cast_fp16 = linear(bias = model_encoder_layer_0_attention_attention_value_bias_to_fp16, weight = model_encoder_layer_0_attention_attention_value_weight_to_fp16, x = hidden_states_1_cast_fp16)[name = string("linear_1_cast_fp16")];
            tensor<int32, [4]> var_108 = const()[name = string("op_108"), val = tensor<int32, [4]>([1, -1, 6, 64])];
            tensor<fp16, [1, 257, 6, 64]> var_109_cast_fp16 = reshape(shape = var_108, x = linear_1_cast_fp16)[name = string("op_109_cast_fp16")];
            tensor<int32, [4]> value_1_perm_0 = const()[name = string("value_1_perm_0"), val = tensor<int32, [4]>([0, 2, 1, 3])];
            tensor<fp16, [384, 384]> model_encoder_layer_0_attention_attention_query_weight_to_fp16 = const()[name = string("model_encoder_layer_0_attention_attention_query_weight_to_fp16"), val = tensor<fp16, [384, 384]>(BLOBFILE(path = string("@model_path/weights/weight.bin"), offset = uint64(1244096)))];
            tensor<fp16, [384]> model_encoder_layer_0_attention_attention_query_bias_to_fp16 = const()[name = string("model_encoder_layer_0_attention_attention_query_bias_to_fp16"), val = tensor<fp16, [384]>(BLOBFILE(path = string("@model_path/weights/weight.bin"), offset = uint64(1539072)))];
            tensor<fp16, [1, 257, 384]> linear_2_cast_fp16 = linear(bias = model_encoder_layer_0_attention_attention_query_bias_to_fp16, weight = model_encoder_layer_0_attention_attention_query_weight_to_fp16, x = hidden_states_1_cast_fp16)[name = string("linear_2_cast_fp16")];
            tensor<int32, [4]> var_114 = const()[name = string("op_114"), val = tensor<int32, [4]>([1, -1, 6, 64])];
            tensor<fp16, [1, 257, 6, 64]> var_115_cast_fp16 = reshape(shape = var_114, x = linear_2_cast_fp16)[name = string("op_115_cast_fp16")];
            fp16 var_57_to_fp16 = const()[name = string("op_57_to_fp16"), val = fp16(0x1p-3)];
            tensor<fp16, [1, 257, 6, 64]> mul_0_cast_fp16 = mul(x = var_115_cast_fp16, y = var_57_to_fp16)[name = string("mul_0_cast_fp16")];
            bool matmul_0_transpose_y_0 = const()[name = string("matmul_0_transpose_y_0"), val = bool(true)];
            bool matmul_0_transpose_x_0 = const()[name = string("matmul_0_transpose_x_0"), val = bool(false)];
            tensor<int32, [4]> transpose_48_perm_0 = const()[name = string("transpose_48_perm_0"), val = tensor<int32, [4]>([0, 2, -3, -1])];
            tensor<int32, [4]> transpose_49_perm_0 = const()[name = string("transpose_49_perm_0"), val = tensor<int32, [4]>([0, 2, -3, -1])];
            tensor<fp16, [1, 6, 257, 64]> transpose_49 = transpose(perm = transpose_49_perm_0, x = var_103_cast_fp16)[name = string("transpose_117")];
            tensor<fp16, [1, 6, 257, 64]> transpose_48 = transpose(perm = transpose_48_perm_0, x = mul_0_cast_fp16)[name = string("transpose_118")];
            tensor<fp16, [1, 6, 257, 257]> matmul_0_cast_fp16 = matmul(transpose_x = matmul_0_transpose_x_0, transpose_y = matmul_0_transpose_y_0, x = transpose_48, y = transpose_49)[name = string("matmul_0_cast_fp16")];
            int32 softmax_0_axis_0 = const()[name = string("softmax_0_axis_0"), val = int32(-1)];
            tensor<fp16, [1, 6, 257, 257]> softmax_0_cast_fp16 = softmax(axis = softmax_0_axis_0, x = matmul_0_cast_fp16)[name = string("softmax_0_cast_fp16")];
            bool attn_output_1_transpose_x_0 = const()[name = string("attn_output_1_transpose_x_0"), val = bool(false)];
            bool attn_output_1_transpose_y_0 = const()[name = string("attn_output_1_transpose_y_0"), val = bool(false)];
            tensor<fp16, [1, 6, 257, 64]> value_1_cast_fp16 = transpose(perm = value_1_perm_0, x = var_109_cast_fp16)[name = string("transpose_119")];
            tensor<fp16, [1, 6, 257, 64]> attn_output_1_cast_fp16 = matmul(transpose_x = attn_output_1_transpose_x_0, transpose_y = attn_output_1_transpose_y_0, x = softmax_0_cast_fp16, y = value_1_cast_fp16)[name = string("attn_output_1_cast_fp16")];
            tensor<int32, [4]> var_118_perm_0 = const()[name = string("op_118_perm_0"), val = tensor<int32, [4]>([0, 2, 1, 3])];
            tensor<int32, [3]> var_122 = const()[name = string("op_122"), val = tensor<int32, [3]>([1, 257, 384])];
            tensor<fp16, [1, 257, 6, 64]> var_118_cast_fp16 = transpose(perm = var_118_perm_0, x = attn_output_1_cast_fp16)[name = string("transpose_116")];
            tensor<fp16, [1, 257, 384]> input_7_cast_fp16 = reshape(shape = var_122, x = var_118_cast_fp16)[name = string("input_7_cast_fp16")];
            tensor<fp16, [384, 384]> model_encoder_layer_0_attention_output_dense_weight_to_fp16 = const()[name = string("model_encoder_layer_0_attention_output_dense_weight_to_fp16"), val = tensor<fp16, [384, 384]>(BLOBFILE(path = string("@model_path/weights/weight.bin"), offset = uint64(1539904)))];
            tensor<fp16, [384]> model_encoder_layer_0_attention_output_dense_bias_to_fp16 = const()[name = string("model_encoder_layer_0_attention_output_dense_bias_to_fp16"), val = tensor<fp16, [384]>(BLOBFILE(path = string("@model_path/weights/weight.bin"), offset = uint64(1834880)))];
            tensor<fp16, [1, 257, 384]> linear_3_cast_fp16 = linear(bias = model_encoder_layer_0_attention_output_dense_bias_to_fp16, weight = model_encoder_layer_0_attention_output_dense_weight_to_fp16, x = input_7_cast_fp16)[name = string("linear_3_cast_fp16")];
            tensor<fp16, [384]> model_encoder_layer_0_layer_scale1_lambda1_to_fp16 = const()[name = string("model_encoder_layer_0_layer_scale1_lambda1_to_fp16"), val = tensor<fp16, [384]>(BLOBFILE(path = string("@model_path/weights/weight.bin"), offset = uint64(1835712)))];
            tensor<fp16, [1, 257, 384]> self_attention_output_1_cast_fp16 = mul(x = linear_3_cast_fp16, y = model_encoder_layer_0_layer_scale1_lambda1_to_fp16)[name = string("self_attention_output_1_cast_fp16")];
            tensor<fp16, [1, 257, 384]> input_11_cast_fp16 = add(x = self_attention_output_1_cast_fp16, y = input_3_cast_fp16)[name = string("input_11_cast_fp16")];
            tensor<int32, [1]> input_13_axes_0 = const()[name = string("input_13_axes_0"), val = tensor<int32, [1]>([-1])];
            tensor<fp16, [384]> model_encoder_layer_0_norm2_weight_to_fp16 = const()[name = string("model_encoder_layer_0_norm2_weight_to_fp16"), val = tensor<fp16, [384]>(BLOBFILE(path = string("@model_path/weights/weight.bin"), offset = uint64(1836544)))];
            tensor<fp16, [384]> model_encoder_layer_0_norm2_bias_to_fp16 = const()[name = string("model_encoder_layer_0_norm2_bias_to_fp16"), val = tensor<fp16, [384]>(BLOBFILE(path = string("@model_path/weights/weight.bin"), offset = uint64(1837376)))];
            tensor<fp16, [1, 257, 384]> input_13_cast_fp16 = layer_norm(axes = input_13_axes_0, beta = model_encoder_layer_0_norm2_bias_to_fp16, epsilon = var_46_to_fp16, gamma = model_encoder_layer_0_norm2_weight_to_fp16, x = input_11_cast_fp16)[name = string("input_13_cast_fp16")];
            tensor<fp16, [1536, 384]> model_encoder_layer_0_mlp_fc1_weight_to_fp16 = const()[name = string("model_encoder_layer_0_mlp_fc1_weight_to_fp16"), val = tensor<fp16, [1536, 384]>(BLOBFILE(path = string("@model_path/weights/weight.bin"), offset = uint64(1838208)))];
            tensor<fp16, [1536]> model_encoder_layer_0_mlp_fc1_bias_to_fp16 = const()[name = string("model_encoder_layer_0_mlp_fc1_bias_to_fp16"), val = tensor<fp16, [1536]>(BLOBFILE(path = string("@model_path/weights/weight.bin"), offset = uint64(3017920)))];
            tensor<fp16, [1, 257, 1536]> linear_4_cast_fp16 = linear(bias = model_encoder_layer_0_mlp_fc1_bias_to_fp16, weight = model_encoder_layer_0_mlp_fc1_weight_to_fp16, x = input_13_cast_fp16)[name = string("linear_4_cast_fp16")];
            string input_17_mode_0 = const()[name = string("input_17_mode_0"), val = string("EXACT")];
            tensor<fp16, [1, 257, 1536]> input_17_cast_fp16 = gelu(mode = input_17_mode_0, x = linear_4_cast_fp16)[name = string("input_17_cast_fp16")];
            tensor<fp16, [384, 1536]> model_encoder_layer_0_mlp_fc2_weight_to_fp16 = const()[name = string("model_encoder_layer_0_mlp_fc2_weight_to_fp16"), val = tensor<fp16, [384, 1536]>(BLOBFILE(path = string("@model_path/weights/weight.bin"), offset = uint64(3021056)))];
            tensor<fp16, [384]> model_encoder_layer_0_mlp_fc2_bias_to_fp16 = const()[name = string("model_encoder_layer_0_mlp_fc2_bias_to_fp16"), val = tensor<fp16, [384]>(BLOBFILE(path = string("@model_path/weights/weight.bin"), offset = uint64(4200768)))];
            tensor<fp16, [1, 257, 384]> linear_5_cast_fp16 = linear(bias = model_encoder_layer_0_mlp_fc2_bias_to_fp16, weight = model_encoder_layer_0_mlp_fc2_weight_to_fp16, x = input_17_cast_fp16)[name = string("linear_5_cast_fp16")];
            tensor<fp16, [384]> model_encoder_layer_0_layer_scale2_lambda1_to_fp16 = const()[name = string("model_encoder_layer_0_layer_scale2_lambda1_to_fp16"), val = tensor<fp16, [384]>(BLOBFILE(path = string("@model_path/weights/weight.bin"), offset = uint64(4201600)))];
            tensor<fp16, [1, 257, 384]> layer_output_1_cast_fp16 = mul(x = linear_5_cast_fp16, y = model_encoder_layer_0_layer_scale2_lambda1_to_fp16)[name = string("layer_output_1_cast_fp16")];
            tensor<fp16, [1, 257, 384]> input_19_cast_fp16 = add(x = layer_output_1_cast_fp16, y = input_11_cast_fp16)[name = string("input_19_cast_fp16")];
            tensor<int32, [1]> hidden_states_3_axes_0 = const()[name = string("hidden_states_3_axes_0"), val = tensor<int32, [1]>([-1])];
            tensor<fp16, [384]> model_encoder_layer_1_norm1_weight_to_fp16 = const()[name = string("model_encoder_layer_1_norm1_weight_to_fp16"), val = tensor<fp16, [384]>(BLOBFILE(path = string("@model_path/weights/weight.bin"), offset = uint64(4202432)))];
            tensor<fp16, [384]> model_encoder_layer_1_norm1_bias_to_fp16 = const()[name = string("model_encoder_layer_1_norm1_bias_to_fp16"), val = tensor<fp16, [384]>(BLOBFILE(path = string("@model_path/weights/weight.bin"), offset = uint64(4203264)))];
            tensor<fp16, [1, 257, 384]> hidden_states_3_cast_fp16 = layer_norm(axes = hidden_states_3_axes_0, beta = model_encoder_layer_1_norm1_bias_to_fp16, epsilon = var_46_to_fp16, gamma = model_encoder_layer_1_norm1_weight_to_fp16, x = input_19_cast_fp16)[name = string("hidden_states_3_cast_fp16")];
            tensor<fp16, [384, 384]> model_encoder_layer_1_attention_attention_key_weight_to_fp16 = const()[name = string("model_encoder_layer_1_attention_attention_key_weight_to_fp16"), val = tensor<fp16, [384, 384]>(BLOBFILE(path = string("@model_path/weights/weight.bin"), offset = uint64(4204096)))];
            tensor<fp16, [384]> model_encoder_layer_1_attention_attention_key_bias_to_fp16 = const()[name = string("model_encoder_layer_1_attention_attention_key_bias_to_fp16"), val = tensor<fp16, [384]>(BLOBFILE(path = string("@model_path/weights/weight.bin"), offset = uint64(4499072)))];
            tensor<fp16, [1, 257, 384]> linear_6_cast_fp16 = linear(bias = model_encoder_layer_1_attention_attention_key_bias_to_fp16, weight = model_encoder_layer_1_attention_attention_key_weight_to_fp16, x = hidden_states_3_cast_fp16)[name = string("linear_6_cast_fp16")];
            tensor<int32, [4]> var_167 = const()[name = string("op_167"), val = tensor<int32, [4]>([1, -1, 6, 64])];
            tensor<fp16, [1, 257, 6, 64]> var_168_cast_fp16 = reshape(shape = var_167, x = linear_6_cast_fp16)[name = string("op_168_cast_fp16")];
            tensor<fp16, [384, 384]> model_encoder_layer_1_attention_attention_value_weight_to_fp16 = const()[name = string("model_encoder_layer_1_attention_attention_value_weight_to_fp16"), val = tensor<fp16, [384, 384]>(BLOBFILE(path = string("@model_path/weights/weight.bin"), offset = uint64(4499904)))];
            tensor<fp16, [384]> model_encoder_layer_1_attention_attention_value_bias_to_fp16 = const()[name = string("model_encoder_layer_1_attention_attention_value_bias_to_fp16"), val = tensor<fp16, [384]>(BLOBFILE(path = string("@model_path/weights/weight.bin"), offset = uint64(4794880)))];
            tensor<fp16, [1, 257, 384]> linear_7_cast_fp16 = linear(bias = model_encoder_layer_1_attention_attention_value_bias_to_fp16, weight = model_encoder_layer_1_attention_attention_value_weight_to_fp16, x = hidden_states_3_cast_fp16)[name = string("linear_7_cast_fp16")];
            tensor<int32, [4]> var_173 = const()[name = string("op_173"), val = tensor<int32, [4]>([1, -1, 6, 64])];
            tensor<fp16, [1, 257, 6, 64]> var_174_cast_fp16 = reshape(shape = var_173, x = linear_7_cast_fp16)[name = string("op_174_cast_fp16")];
            tensor<int32, [4]> value_3_perm_0 = const()[name = string("value_3_perm_0"), val = tensor<int32, [4]>([0, 2, 1, 3])];
            tensor<fp16, [384, 384]> model_encoder_layer_1_attention_attention_query_weight_to_fp16 = const()[name = string("model_encoder_layer_1_attention_attention_query_weight_to_fp16"), val = tensor<fp16, [384, 384]>(BLOBFILE(path = string("@model_path/weights/weight.bin"), offset = uint64(4795712)))];
            tensor<fp16, [384]> model_encoder_layer_1_attention_attention_query_bias_to_fp16 = const()[name = string("model_encoder_layer_1_attention_attention_query_bias_to_fp16"), val = tensor<fp16, [384]>(BLOBFILE(path = string("@model_path/weights/weight.bin"), offset = uint64(5090688)))];
            tensor<fp16, [1, 257, 384]> linear_8_cast_fp16 = linear(bias = model_encoder_layer_1_attention_attention_query_bias_to_fp16, weight = model_encoder_layer_1_attention_attention_query_weight_to_fp16, x = hidden_states_3_cast_fp16)[name = string("linear_8_cast_fp16")];
            tensor<int32, [4]> var_179 = const()[name = string("op_179"), val = tensor<int32, [4]>([1, -1, 6, 64])];
            tensor<fp16, [1, 257, 6, 64]> var_180_cast_fp16 = reshape(shape = var_179, x = linear_8_cast_fp16)[name = string("op_180_cast_fp16")];
            tensor<fp16, [1, 257, 6, 64]> mul_1_cast_fp16 = mul(x = var_180_cast_fp16, y = var_57_to_fp16)[name = string("mul_1_cast_fp16")];
            bool matmul_1_transpose_y_0 = const()[name = string("matmul_1_transpose_y_0"), val = bool(true)];
            bool matmul_1_transpose_x_0 = const()[name = string("matmul_1_transpose_x_0"), val = bool(false)];
            tensor<int32, [4]> transpose_50_perm_0 = const()[name = string("transpose_50_perm_0"), val = tensor<int32, [4]>([0, 2, -3, -1])];
            tensor<int32, [4]> transpose_51_perm_0 = const()[name = string("transpose_51_perm_0"), val = tensor<int32, [4]>([0, 2, -3, -1])];
            tensor<fp16, [1, 6, 257, 64]> transpose_51 = transpose(perm = transpose_51_perm_0, x = var_168_cast_fp16)[name = string("transpose_113")];
            tensor<fp16, [1, 6, 257, 64]> transpose_50 = transpose(perm = transpose_50_perm_0, x = mul_1_cast_fp16)[name = string("transpose_114")];
            tensor<fp16, [1, 6, 257, 257]> matmul_1_cast_fp16 = matmul(transpose_x = matmul_1_transpose_x_0, transpose_y = matmul_1_transpose_y_0, x = transpose_50, y = transpose_51)[name = string("matmul_1_cast_fp16")];
            int32 softmax_1_axis_0 = const()[name = string("softmax_1_axis_0"), val = int32(-1)];
            tensor<fp16, [1, 6, 257, 257]> softmax_1_cast_fp16 = softmax(axis = softmax_1_axis_0, x = matmul_1_cast_fp16)[name = string("softmax_1_cast_fp16")];
            bool attn_output_3_transpose_x_0 = const()[name = string("attn_output_3_transpose_x_0"), val = bool(false)];
            bool attn_output_3_transpose_y_0 = const()[name = string("attn_output_3_transpose_y_0"), val = bool(false)];
            tensor<fp16, [1, 6, 257, 64]> value_3_cast_fp16 = transpose(perm = value_3_perm_0, x = var_174_cast_fp16)[name = string("transpose_115")];
            tensor<fp16, [1, 6, 257, 64]> attn_output_3_cast_fp16 = matmul(transpose_x = attn_output_3_transpose_x_0, transpose_y = attn_output_3_transpose_y_0, x = softmax_1_cast_fp16, y = value_3_cast_fp16)[name = string("attn_output_3_cast_fp16")];
            tensor<int32, [4]> var_183_perm_0 = const()[name = string("op_183_perm_0"), val = tensor<int32, [4]>([0, 2, 1, 3])];
            tensor<int32, [3]> var_187 = const()[name = string("op_187"), val = tensor<int32, [3]>([1, 257, 384])];
            tensor<fp16, [1, 257, 6, 64]> var_183_cast_fp16 = transpose(perm = var_183_perm_0, x = attn_output_3_cast_fp16)[name = string("transpose_112")];
            tensor<fp16, [1, 257, 384]> input_21_cast_fp16 = reshape(shape = var_187, x = var_183_cast_fp16)[name = string("input_21_cast_fp16")];
            tensor<fp16, [384, 384]> model_encoder_layer_1_attention_output_dense_weight_to_fp16 = const()[name = string("model_encoder_layer_1_attention_output_dense_weight_to_fp16"), val = tensor<fp16, [384, 384]>(BLOBFILE(path = string("@model_path/weights/weight.bin"), offset = uint64(5091520)))];
            tensor<fp16, [384]> model_encoder_layer_1_attention_output_dense_bias_to_fp16 = const()[name = string("model_encoder_layer_1_attention_output_dense_bias_to_fp16"), val = tensor<fp16, [384]>(BLOBFILE(path = string("@model_path/weights/weight.bin"), offset = uint64(5386496)))];
            tensor<fp16, [1, 257, 384]> linear_9_cast_fp16 = linear(bias = model_encoder_layer_1_attention_output_dense_bias_to_fp16, weight = model_encoder_layer_1_attention_output_dense_weight_to_fp16, x = input_21_cast_fp16)[name = string("linear_9_cast_fp16")];
            tensor<fp16, [384]> model_encoder_layer_1_layer_scale1_lambda1_to_fp16 = const()[name = string("model_encoder_layer_1_layer_scale1_lambda1_to_fp16"), val = tensor<fp16, [384]>(BLOBFILE(path = string("@model_path/weights/weight.bin"), offset = uint64(5387328)))];
            tensor<fp16, [1, 257, 384]> self_attention_output_3_cast_fp16 = mul(x = linear_9_cast_fp16, y = model_encoder_layer_1_layer_scale1_lambda1_to_fp16)[name = string("self_attention_output_3_cast_fp16")];
            tensor<fp16, [1, 257, 384]> input_25_cast_fp16 = add(x = self_attention_output_3_cast_fp16, y = input_19_cast_fp16)[name = string("input_25_cast_fp16")];
            tensor<int32, [1]> input_27_axes_0 = const()[name = string("input_27_axes_0"), val = tensor<int32, [1]>([-1])];
            tensor<fp16, [384]> model_encoder_layer_1_norm2_weight_to_fp16 = const()[name = string("model_encoder_layer_1_norm2_weight_to_fp16"), val = tensor<fp16, [384]>(BLOBFILE(path = string("@model_path/weights/weight.bin"), offset = uint64(5388160)))];
            tensor<fp16, [384]> model_encoder_layer_1_norm2_bias_to_fp16 = const()[name = string("model_encoder_layer_1_norm2_bias_to_fp16"), val = tensor<fp16, [384]>(BLOBFILE(path = string("@model_path/weights/weight.bin"), offset = uint64(5388992)))];
            tensor<fp16, [1, 257, 384]> input_27_cast_fp16 = layer_norm(axes = input_27_axes_0, beta = model_encoder_layer_1_norm2_bias_to_fp16, epsilon = var_46_to_fp16, gamma = model_encoder_layer_1_norm2_weight_to_fp16, x = input_25_cast_fp16)[name = string("input_27_cast_fp16")];
            tensor<fp16, [1536, 384]> model_encoder_layer_1_mlp_fc1_weight_to_fp16 = const()[name = string("model_encoder_layer_1_mlp_fc1_weight_to_fp16"), val = tensor<fp16, [1536, 384]>(BLOBFILE(path = string("@model_path/weights/weight.bin"), offset = uint64(5389824)))];
            tensor<fp16, [1536]> model_encoder_layer_1_mlp_fc1_bias_to_fp16 = const()[name = string("model_encoder_layer_1_mlp_fc1_bias_to_fp16"), val = tensor<fp16, [1536]>(BLOBFILE(path = string("@model_path/weights/weight.bin"), offset = uint64(6569536)))];
            tensor<fp16, [1, 257, 1536]> linear_10_cast_fp16 = linear(bias = model_encoder_layer_1_mlp_fc1_bias_to_fp16, weight = model_encoder_layer_1_mlp_fc1_weight_to_fp16, x = input_27_cast_fp16)[name = string("linear_10_cast_fp16")];
            string input_31_mode_0 = const()[name = string("input_31_mode_0"), val = string("EXACT")];
            tensor<fp16, [1, 257, 1536]> input_31_cast_fp16 = gelu(mode = input_31_mode_0, x = linear_10_cast_fp16)[name = string("input_31_cast_fp16")];
            tensor<fp16, [384, 1536]> model_encoder_layer_1_mlp_fc2_weight_to_fp16 = const()[name = string("model_encoder_layer_1_mlp_fc2_weight_to_fp16"), val = tensor<fp16, [384, 1536]>(BLOBFILE(path = string("@model_path/weights/weight.bin"), offset = uint64(6572672)))];
            tensor<fp16, [384]> model_encoder_layer_1_mlp_fc2_bias_to_fp16 = const()[name = string("model_encoder_layer_1_mlp_fc2_bias_to_fp16"), val = tensor<fp16, [384]>(BLOBFILE(path = string("@model_path/weights/weight.bin"), offset = uint64(7752384)))];
            tensor<fp16, [1, 257, 384]> linear_11_cast_fp16 = linear(bias = model_encoder_layer_1_mlp_fc2_bias_to_fp16, weight = model_encoder_layer_1_mlp_fc2_weight_to_fp16, x = input_31_cast_fp16)[name = string("linear_11_cast_fp16")];
            tensor<fp16, [384]> model_encoder_layer_1_layer_scale2_lambda1_to_fp16 = const()[name = string("model_encoder_layer_1_layer_scale2_lambda1_to_fp16"), val = tensor<fp16, [384]>(BLOBFILE(path = string("@model_path/weights/weight.bin"), offset = uint64(7753216)))];
            tensor<fp16, [1, 257, 384]> layer_output_3_cast_fp16 = mul(x = linear_11_cast_fp16, y = model_encoder_layer_1_layer_scale2_lambda1_to_fp16)[name = string("layer_output_3_cast_fp16")];
            tensor<fp16, [1, 257, 384]> input_33_cast_fp16 = add(x = layer_output_3_cast_fp16, y = input_25_cast_fp16)[name = string("input_33_cast_fp16")];
            tensor<int32, [1]> hidden_states_5_axes_0 = const()[name = string("hidden_states_5_axes_0"), val = tensor<int32, [1]>([-1])];
            tensor<fp16, [384]> model_encoder_layer_2_norm1_weight_to_fp16 = const()[name = string("model_encoder_layer_2_norm1_weight_to_fp16"), val = tensor<fp16, [384]>(BLOBFILE(path = string("@model_path/weights/weight.bin"), offset = uint64(7754048)))];
            tensor<fp16, [384]> model_encoder_layer_2_norm1_bias_to_fp16 = const()[name = string("model_encoder_layer_2_norm1_bias_to_fp16"), val = tensor<fp16, [384]>(BLOBFILE(path = string("@model_path/weights/weight.bin"), offset = uint64(7754880)))];
            tensor<fp16, [1, 257, 384]> hidden_states_5_cast_fp16 = layer_norm(axes = hidden_states_5_axes_0, beta = model_encoder_layer_2_norm1_bias_to_fp16, epsilon = var_46_to_fp16, gamma = model_encoder_layer_2_norm1_weight_to_fp16, x = input_33_cast_fp16)[name = string("hidden_states_5_cast_fp16")];
            tensor<fp16, [384, 384]> model_encoder_layer_2_attention_attention_key_weight_to_fp16 = const()[name = string("model_encoder_layer_2_attention_attention_key_weight_to_fp16"), val = tensor<fp16, [384, 384]>(BLOBFILE(path = string("@model_path/weights/weight.bin"), offset = uint64(7755712)))];
            tensor<fp16, [384]> model_encoder_layer_2_attention_attention_key_bias_to_fp16 = const()[name = string("model_encoder_layer_2_attention_attention_key_bias_to_fp16"), val = tensor<fp16, [384]>(BLOBFILE(path = string("@model_path/weights/weight.bin"), offset = uint64(8050688)))];
            tensor<fp16, [1, 257, 384]> linear_12_cast_fp16 = linear(bias = model_encoder_layer_2_attention_attention_key_bias_to_fp16, weight = model_encoder_layer_2_attention_attention_key_weight_to_fp16, x = hidden_states_5_cast_fp16)[name = string("linear_12_cast_fp16")];
            tensor<int32, [4]> var_232 = const()[name = string("op_232"), val = tensor<int32, [4]>([1, -1, 6, 64])];
            tensor<fp16, [1, 257, 6, 64]> var_233_cast_fp16 = reshape(shape = var_232, x = linear_12_cast_fp16)[name = string("op_233_cast_fp16")];
            tensor<fp16, [384, 384]> model_encoder_layer_2_attention_attention_value_weight_to_fp16 = const()[name = string("model_encoder_layer_2_attention_attention_value_weight_to_fp16"), val = tensor<fp16, [384, 384]>(BLOBFILE(path = string("@model_path/weights/weight.bin"), offset = uint64(8051520)))];
            tensor<fp16, [384]> model_encoder_layer_2_attention_attention_value_bias_to_fp16 = const()[name = string("model_encoder_layer_2_attention_attention_value_bias_to_fp16"), val = tensor<fp16, [384]>(BLOBFILE(path = string("@model_path/weights/weight.bin"), offset = uint64(8346496)))];
            tensor<fp16, [1, 257, 384]> linear_13_cast_fp16 = linear(bias = model_encoder_layer_2_attention_attention_value_bias_to_fp16, weight = model_encoder_layer_2_attention_attention_value_weight_to_fp16, x = hidden_states_5_cast_fp16)[name = string("linear_13_cast_fp16")];
            tensor<int32, [4]> var_238 = const()[name = string("op_238"), val = tensor<int32, [4]>([1, -1, 6, 64])];
            tensor<fp16, [1, 257, 6, 64]> var_239_cast_fp16 = reshape(shape = var_238, x = linear_13_cast_fp16)[name = string("op_239_cast_fp16")];
            tensor<int32, [4]> value_5_perm_0 = const()[name = string("value_5_perm_0"), val = tensor<int32, [4]>([0, 2, 1, 3])];
            tensor<fp16, [384, 384]> model_encoder_layer_2_attention_attention_query_weight_to_fp16 = const()[name = string("model_encoder_layer_2_attention_attention_query_weight_to_fp16"), val = tensor<fp16, [384, 384]>(BLOBFILE(path = string("@model_path/weights/weight.bin"), offset = uint64(8347328)))];
            tensor<fp16, [384]> model_encoder_layer_2_attention_attention_query_bias_to_fp16 = const()[name = string("model_encoder_layer_2_attention_attention_query_bias_to_fp16"), val = tensor<fp16, [384]>(BLOBFILE(path = string("@model_path/weights/weight.bin"), offset = uint64(8642304)))];
            tensor<fp16, [1, 257, 384]> linear_14_cast_fp16 = linear(bias = model_encoder_layer_2_attention_attention_query_bias_to_fp16, weight = model_encoder_layer_2_attention_attention_query_weight_to_fp16, x = hidden_states_5_cast_fp16)[name = string("linear_14_cast_fp16")];
            tensor<int32, [4]> var_244 = const()[name = string("op_244"), val = tensor<int32, [4]>([1, -1, 6, 64])];
            tensor<fp16, [1, 257, 6, 64]> var_245_cast_fp16 = reshape(shape = var_244, x = linear_14_cast_fp16)[name = string("op_245_cast_fp16")];
            tensor<fp16, [1, 257, 6, 64]> mul_2_cast_fp16 = mul(x = var_245_cast_fp16, y = var_57_to_fp16)[name = string("mul_2_cast_fp16")];
            bool matmul_2_transpose_y_0 = const()[name = string("matmul_2_transpose_y_0"), val = bool(true)];
            bool matmul_2_transpose_x_0 = const()[name = string("matmul_2_transpose_x_0"), val = bool(false)];
            tensor<int32, [4]> transpose_52_perm_0 = const()[name = string("transpose_52_perm_0"), val = tensor<int32, [4]>([0, 2, -3, -1])];
            tensor<int32, [4]> transpose_53_perm_0 = const()[name = string("transpose_53_perm_0"), val = tensor<int32, [4]>([0, 2, -3, -1])];
            tensor<fp16, [1, 6, 257, 64]> transpose_53 = transpose(perm = transpose_53_perm_0, x = var_233_cast_fp16)[name = string("transpose_109")];
            tensor<fp16, [1, 6, 257, 64]> transpose_52 = transpose(perm = transpose_52_perm_0, x = mul_2_cast_fp16)[name = string("transpose_110")];
            tensor<fp16, [1, 6, 257, 257]> matmul_2_cast_fp16 = matmul(transpose_x = matmul_2_transpose_x_0, transpose_y = matmul_2_transpose_y_0, x = transpose_52, y = transpose_53)[name = string("matmul_2_cast_fp16")];
            int32 softmax_2_axis_0 = const()[name = string("softmax_2_axis_0"), val = int32(-1)];
            tensor<fp16, [1, 6, 257, 257]> softmax_2_cast_fp16 = softmax(axis = softmax_2_axis_0, x = matmul_2_cast_fp16)[name = string("softmax_2_cast_fp16")];
            bool attn_output_5_transpose_x_0 = const()[name = string("attn_output_5_transpose_x_0"), val = bool(false)];
            bool attn_output_5_transpose_y_0 = const()[name = string("attn_output_5_transpose_y_0"), val = bool(false)];
            tensor<fp16, [1, 6, 257, 64]> value_5_cast_fp16 = transpose(perm = value_5_perm_0, x = var_239_cast_fp16)[name = string("transpose_111")];
            tensor<fp16, [1, 6, 257, 64]> attn_output_5_cast_fp16 = matmul(transpose_x = attn_output_5_transpose_x_0, transpose_y = attn_output_5_transpose_y_0, x = softmax_2_cast_fp16, y = value_5_cast_fp16)[name = string("attn_output_5_cast_fp16")];
            tensor<int32, [4]> var_248_perm_0 = const()[name = string("op_248_perm_0"), val = tensor<int32, [4]>([0, 2, 1, 3])];
            tensor<int32, [3]> var_252 = const()[name = string("op_252"), val = tensor<int32, [3]>([1, 257, 384])];
            tensor<fp16, [1, 257, 6, 64]> var_248_cast_fp16 = transpose(perm = var_248_perm_0, x = attn_output_5_cast_fp16)[name = string("transpose_108")];
            tensor<fp16, [1, 257, 384]> input_35_cast_fp16 = reshape(shape = var_252, x = var_248_cast_fp16)[name = string("input_35_cast_fp16")];
            tensor<fp16, [384, 384]> model_encoder_layer_2_attention_output_dense_weight_to_fp16 = const()[name = string("model_encoder_layer_2_attention_output_dense_weight_to_fp16"), val = tensor<fp16, [384, 384]>(BLOBFILE(path = string("@model_path/weights/weight.bin"), offset = uint64(8643136)))];
            tensor<fp16, [384]> model_encoder_layer_2_attention_output_dense_bias_to_fp16 = const()[name = string("model_encoder_layer_2_attention_output_dense_bias_to_fp16"), val = tensor<fp16, [384]>(BLOBFILE(path = string("@model_path/weights/weight.bin"), offset = uint64(8938112)))];
            tensor<fp16, [1, 257, 384]> linear_15_cast_fp16 = linear(bias = model_encoder_layer_2_attention_output_dense_bias_to_fp16, weight = model_encoder_layer_2_attention_output_dense_weight_to_fp16, x = input_35_cast_fp16)[name = string("linear_15_cast_fp16")];
            tensor<fp16, [384]> model_encoder_layer_2_layer_scale1_lambda1_to_fp16 = const()[name = string("model_encoder_layer_2_layer_scale1_lambda1_to_fp16"), val = tensor<fp16, [384]>(BLOBFILE(path = string("@model_path/weights/weight.bin"), offset = uint64(8938944)))];
            tensor<fp16, [1, 257, 384]> self_attention_output_5_cast_fp16 = mul(x = linear_15_cast_fp16, y = model_encoder_layer_2_layer_scale1_lambda1_to_fp16)[name = string("self_attention_output_5_cast_fp16")];
            tensor<fp16, [1, 257, 384]> input_39_cast_fp16 = add(x = self_attention_output_5_cast_fp16, y = input_33_cast_fp16)[name = string("input_39_cast_fp16")];
            tensor<int32, [1]> input_41_axes_0 = const()[name = string("input_41_axes_0"), val = tensor<int32, [1]>([-1])];
            tensor<fp16, [384]> model_encoder_layer_2_norm2_weight_to_fp16 = const()[name = string("model_encoder_layer_2_norm2_weight_to_fp16"), val = tensor<fp16, [384]>(BLOBFILE(path = string("@model_path/weights/weight.bin"), offset = uint64(8939776)))];
            tensor<fp16, [384]> model_encoder_layer_2_norm2_bias_to_fp16 = const()[name = string("model_encoder_layer_2_norm2_bias_to_fp16"), val = tensor<fp16, [384]>(BLOBFILE(path = string("@model_path/weights/weight.bin"), offset = uint64(8940608)))];
            tensor<fp16, [1, 257, 384]> input_41_cast_fp16 = layer_norm(axes = input_41_axes_0, beta = model_encoder_layer_2_norm2_bias_to_fp16, epsilon = var_46_to_fp16, gamma = model_encoder_layer_2_norm2_weight_to_fp16, x = input_39_cast_fp16)[name = string("input_41_cast_fp16")];
            tensor<fp16, [1536, 384]> model_encoder_layer_2_mlp_fc1_weight_to_fp16 = const()[name = string("model_encoder_layer_2_mlp_fc1_weight_to_fp16"), val = tensor<fp16, [1536, 384]>(BLOBFILE(path = string("@model_path/weights/weight.bin"), offset = uint64(8941440)))];
            tensor<fp16, [1536]> model_encoder_layer_2_mlp_fc1_bias_to_fp16 = const()[name = string("model_encoder_layer_2_mlp_fc1_bias_to_fp16"), val = tensor<fp16, [1536]>(BLOBFILE(path = string("@model_path/weights/weight.bin"), offset = uint64(10121152)))];
            tensor<fp16, [1, 257, 1536]> linear_16_cast_fp16 = linear(bias = model_encoder_layer_2_mlp_fc1_bias_to_fp16, weight = model_encoder_layer_2_mlp_fc1_weight_to_fp16, x = input_41_cast_fp16)[name = string("linear_16_cast_fp16")];
            string input_45_mode_0 = const()[name = string("input_45_mode_0"), val = string("EXACT")];
            tensor<fp16, [1, 257, 1536]> input_45_cast_fp16 = gelu(mode = input_45_mode_0, x = linear_16_cast_fp16)[name = string("input_45_cast_fp16")];
            tensor<fp16, [384, 1536]> model_encoder_layer_2_mlp_fc2_weight_to_fp16 = const()[name = string("model_encoder_layer_2_mlp_fc2_weight_to_fp16"), val = tensor<fp16, [384, 1536]>(BLOBFILE(path = string("@model_path/weights/weight.bin"), offset = uint64(10124288)))];
            tensor<fp16, [384]> model_encoder_layer_2_mlp_fc2_bias_to_fp16 = const()[name = string("model_encoder_layer_2_mlp_fc2_bias_to_fp16"), val = tensor<fp16, [384]>(BLOBFILE(path = string("@model_path/weights/weight.bin"), offset = uint64(11304000)))];
            tensor<fp16, [1, 257, 384]> linear_17_cast_fp16 = linear(bias = model_encoder_layer_2_mlp_fc2_bias_to_fp16, weight = model_encoder_layer_2_mlp_fc2_weight_to_fp16, x = input_45_cast_fp16)[name = string("linear_17_cast_fp16")];
            tensor<fp16, [384]> model_encoder_layer_2_layer_scale2_lambda1_to_fp16 = const()[name = string("model_encoder_layer_2_layer_scale2_lambda1_to_fp16"), val = tensor<fp16, [384]>(BLOBFILE(path = string("@model_path/weights/weight.bin"), offset = uint64(11304832)))];
            tensor<fp16, [1, 257, 384]> layer_output_5_cast_fp16 = mul(x = linear_17_cast_fp16, y = model_encoder_layer_2_layer_scale2_lambda1_to_fp16)[name = string("layer_output_5_cast_fp16")];
            tensor<fp16, [1, 257, 384]> input_47_cast_fp16 = add(x = layer_output_5_cast_fp16, y = input_39_cast_fp16)[name = string("input_47_cast_fp16")];
            tensor<int32, [1]> hidden_states_7_axes_0 = const()[name = string("hidden_states_7_axes_0"), val = tensor<int32, [1]>([-1])];
            tensor<fp16, [384]> model_encoder_layer_3_norm1_weight_to_fp16 = const()[name = string("model_encoder_layer_3_norm1_weight_to_fp16"), val = tensor<fp16, [384]>(BLOBFILE(path = string("@model_path/weights/weight.bin"), offset = uint64(11305664)))];
            tensor<fp16, [384]> model_encoder_layer_3_norm1_bias_to_fp16 = const()[name = string("model_encoder_layer_3_norm1_bias_to_fp16"), val = tensor<fp16, [384]>(BLOBFILE(path = string("@model_path/weights/weight.bin"), offset = uint64(11306496)))];
            tensor<fp16, [1, 257, 384]> hidden_states_7_cast_fp16 = layer_norm(axes = hidden_states_7_axes_0, beta = model_encoder_layer_3_norm1_bias_to_fp16, epsilon = var_46_to_fp16, gamma = model_encoder_layer_3_norm1_weight_to_fp16, x = input_47_cast_fp16)[name = string("hidden_states_7_cast_fp16")];
            tensor<fp16, [384, 384]> model_encoder_layer_3_attention_attention_key_weight_to_fp16 = const()[name = string("model_encoder_layer_3_attention_attention_key_weight_to_fp16"), val = tensor<fp16, [384, 384]>(BLOBFILE(path = string("@model_path/weights/weight.bin"), offset = uint64(11307328)))];
            tensor<fp16, [384]> model_encoder_layer_3_attention_attention_key_bias_to_fp16 = const()[name = string("model_encoder_layer_3_attention_attention_key_bias_to_fp16"), val = tensor<fp16, [384]>(BLOBFILE(path = string("@model_path/weights/weight.bin"), offset = uint64(11602304)))];
            tensor<fp16, [1, 257, 384]> linear_18_cast_fp16 = linear(bias = model_encoder_layer_3_attention_attention_key_bias_to_fp16, weight = model_encoder_layer_3_attention_attention_key_weight_to_fp16, x = hidden_states_7_cast_fp16)[name = string("linear_18_cast_fp16")];
            tensor<int32, [4]> var_297 = const()[name = string("op_297"), val = tensor<int32, [4]>([1, -1, 6, 64])];
            tensor<fp16, [1, 257, 6, 64]> var_298_cast_fp16 = reshape(shape = var_297, x = linear_18_cast_fp16)[name = string("op_298_cast_fp16")];
            tensor<fp16, [384, 384]> model_encoder_layer_3_attention_attention_value_weight_to_fp16 = const()[name = string("model_encoder_layer_3_attention_attention_value_weight_to_fp16"), val = tensor<fp16, [384, 384]>(BLOBFILE(path = string("@model_path/weights/weight.bin"), offset = uint64(11603136)))];
            tensor<fp16, [384]> model_encoder_layer_3_attention_attention_value_bias_to_fp16 = const()[name = string("model_encoder_layer_3_attention_attention_value_bias_to_fp16"), val = tensor<fp16, [384]>(BLOBFILE(path = string("@model_path/weights/weight.bin"), offset = uint64(11898112)))];
            tensor<fp16, [1, 257, 384]> linear_19_cast_fp16 = linear(bias = model_encoder_layer_3_attention_attention_value_bias_to_fp16, weight = model_encoder_layer_3_attention_attention_value_weight_to_fp16, x = hidden_states_7_cast_fp16)[name = string("linear_19_cast_fp16")];
            tensor<int32, [4]> var_303 = const()[name = string("op_303"), val = tensor<int32, [4]>([1, -1, 6, 64])];
            tensor<fp16, [1, 257, 6, 64]> var_304_cast_fp16 = reshape(shape = var_303, x = linear_19_cast_fp16)[name = string("op_304_cast_fp16")];
            tensor<int32, [4]> value_7_perm_0 = const()[name = string("value_7_perm_0"), val = tensor<int32, [4]>([0, 2, 1, 3])];
            tensor<fp16, [384, 384]> model_encoder_layer_3_attention_attention_query_weight_to_fp16 = const()[name = string("model_encoder_layer_3_attention_attention_query_weight_to_fp16"), val = tensor<fp16, [384, 384]>(BLOBFILE(path = string("@model_path/weights/weight.bin"), offset = uint64(11898944)))];
            tensor<fp16, [384]> model_encoder_layer_3_attention_attention_query_bias_to_fp16 = const()[name = string("model_encoder_layer_3_attention_attention_query_bias_to_fp16"), val = tensor<fp16, [384]>(BLOBFILE(path = string("@model_path/weights/weight.bin"), offset = uint64(12193920)))];
            tensor<fp16, [1, 257, 384]> linear_20_cast_fp16 = linear(bias = model_encoder_layer_3_attention_attention_query_bias_to_fp16, weight = model_encoder_layer_3_attention_attention_query_weight_to_fp16, x = hidden_states_7_cast_fp16)[name = string("linear_20_cast_fp16")];
            tensor<int32, [4]> var_309 = const()[name = string("op_309"), val = tensor<int32, [4]>([1, -1, 6, 64])];
            tensor<fp16, [1, 257, 6, 64]> var_310_cast_fp16 = reshape(shape = var_309, x = linear_20_cast_fp16)[name = string("op_310_cast_fp16")];
            tensor<fp16, [1, 257, 6, 64]> mul_3_cast_fp16 = mul(x = var_310_cast_fp16, y = var_57_to_fp16)[name = string("mul_3_cast_fp16")];
            bool matmul_3_transpose_y_0 = const()[name = string("matmul_3_transpose_y_0"), val = bool(true)];
            bool matmul_3_transpose_x_0 = const()[name = string("matmul_3_transpose_x_0"), val = bool(false)];
            tensor<int32, [4]> transpose_54_perm_0 = const()[name = string("transpose_54_perm_0"), val = tensor<int32, [4]>([0, 2, -3, -1])];
            tensor<int32, [4]> transpose_55_perm_0 = const()[name = string("transpose_55_perm_0"), val = tensor<int32, [4]>([0, 2, -3, -1])];
            tensor<fp16, [1, 6, 257, 64]> transpose_55 = transpose(perm = transpose_55_perm_0, x = var_298_cast_fp16)[name = string("transpose_105")];
            tensor<fp16, [1, 6, 257, 64]> transpose_54 = transpose(perm = transpose_54_perm_0, x = mul_3_cast_fp16)[name = string("transpose_106")];
            tensor<fp16, [1, 6, 257, 257]> matmul_3_cast_fp16 = matmul(transpose_x = matmul_3_transpose_x_0, transpose_y = matmul_3_transpose_y_0, x = transpose_54, y = transpose_55)[name = string("matmul_3_cast_fp16")];
            int32 softmax_3_axis_0 = const()[name = string("softmax_3_axis_0"), val = int32(-1)];
            tensor<fp16, [1, 6, 257, 257]> softmax_3_cast_fp16 = softmax(axis = softmax_3_axis_0, x = matmul_3_cast_fp16)[name = string("softmax_3_cast_fp16")];
            bool attn_output_7_transpose_x_0 = const()[name = string("attn_output_7_transpose_x_0"), val = bool(false)];
            bool attn_output_7_transpose_y_0 = const()[name = string("attn_output_7_transpose_y_0"), val = bool(false)];
            tensor<fp16, [1, 6, 257, 64]> value_7_cast_fp16 = transpose(perm = value_7_perm_0, x = var_304_cast_fp16)[name = string("transpose_107")];
            tensor<fp16, [1, 6, 257, 64]> attn_output_7_cast_fp16 = matmul(transpose_x = attn_output_7_transpose_x_0, transpose_y = attn_output_7_transpose_y_0, x = softmax_3_cast_fp16, y = value_7_cast_fp16)[name = string("attn_output_7_cast_fp16")];
            tensor<int32, [4]> var_313_perm_0 = const()[name = string("op_313_perm_0"), val = tensor<int32, [4]>([0, 2, 1, 3])];
            tensor<int32, [3]> var_317 = const()[name = string("op_317"), val = tensor<int32, [3]>([1, 257, 384])];
            tensor<fp16, [1, 257, 6, 64]> var_313_cast_fp16 = transpose(perm = var_313_perm_0, x = attn_output_7_cast_fp16)[name = string("transpose_104")];
            tensor<fp16, [1, 257, 384]> input_49_cast_fp16 = reshape(shape = var_317, x = var_313_cast_fp16)[name = string("input_49_cast_fp16")];
            tensor<fp16, [384, 384]> model_encoder_layer_3_attention_output_dense_weight_to_fp16 = const()[name = string("model_encoder_layer_3_attention_output_dense_weight_to_fp16"), val = tensor<fp16, [384, 384]>(BLOBFILE(path = string("@model_path/weights/weight.bin"), offset = uint64(12194752)))];
            tensor<fp16, [384]> model_encoder_layer_3_attention_output_dense_bias_to_fp16 = const()[name = string("model_encoder_layer_3_attention_output_dense_bias_to_fp16"), val = tensor<fp16, [384]>(BLOBFILE(path = string("@model_path/weights/weight.bin"), offset = uint64(12489728)))];
            tensor<fp16, [1, 257, 384]> linear_21_cast_fp16 = linear(bias = model_encoder_layer_3_attention_output_dense_bias_to_fp16, weight = model_encoder_layer_3_attention_output_dense_weight_to_fp16, x = input_49_cast_fp16)[name = string("linear_21_cast_fp16")];
            tensor<fp16, [384]> model_encoder_layer_3_layer_scale1_lambda1_to_fp16 = const()[name = string("model_encoder_layer_3_layer_scale1_lambda1_to_fp16"), val = tensor<fp16, [384]>(BLOBFILE(path = string("@model_path/weights/weight.bin"), offset = uint64(12490560)))];
            tensor<fp16, [1, 257, 384]> self_attention_output_7_cast_fp16 = mul(x = linear_21_cast_fp16, y = model_encoder_layer_3_layer_scale1_lambda1_to_fp16)[name = string("self_attention_output_7_cast_fp16")];
            tensor<fp16, [1, 257, 384]> input_53_cast_fp16 = add(x = self_attention_output_7_cast_fp16, y = input_47_cast_fp16)[name = string("input_53_cast_fp16")];
            tensor<int32, [1]> input_55_axes_0 = const()[name = string("input_55_axes_0"), val = tensor<int32, [1]>([-1])];
            tensor<fp16, [384]> model_encoder_layer_3_norm2_weight_to_fp16 = const()[name = string("model_encoder_layer_3_norm2_weight_to_fp16"), val = tensor<fp16, [384]>(BLOBFILE(path = string("@model_path/weights/weight.bin"), offset = uint64(12491392)))];
            tensor<fp16, [384]> model_encoder_layer_3_norm2_bias_to_fp16 = const()[name = string("model_encoder_layer_3_norm2_bias_to_fp16"), val = tensor<fp16, [384]>(BLOBFILE(path = string("@model_path/weights/weight.bin"), offset = uint64(12492224)))];
            tensor<fp16, [1, 257, 384]> input_55_cast_fp16 = layer_norm(axes = input_55_axes_0, beta = model_encoder_layer_3_norm2_bias_to_fp16, epsilon = var_46_to_fp16, gamma = model_encoder_layer_3_norm2_weight_to_fp16, x = input_53_cast_fp16)[name = string("input_55_cast_fp16")];
            tensor<fp16, [1536, 384]> model_encoder_layer_3_mlp_fc1_weight_to_fp16 = const()[name = string("model_encoder_layer_3_mlp_fc1_weight_to_fp16"), val = tensor<fp16, [1536, 384]>(BLOBFILE(path = string("@model_path/weights/weight.bin"), offset = uint64(12493056)))];
            tensor<fp16, [1536]> model_encoder_layer_3_mlp_fc1_bias_to_fp16 = const()[name = string("model_encoder_layer_3_mlp_fc1_bias_to_fp16"), val = tensor<fp16, [1536]>(BLOBFILE(path = string("@model_path/weights/weight.bin"), offset = uint64(13672768)))];
            tensor<fp16, [1, 257, 1536]> linear_22_cast_fp16 = linear(bias = model_encoder_layer_3_mlp_fc1_bias_to_fp16, weight = model_encoder_layer_3_mlp_fc1_weight_to_fp16, x = input_55_cast_fp16)[name = string("linear_22_cast_fp16")];
            string input_59_mode_0 = const()[name = string("input_59_mode_0"), val = string("EXACT")];
            tensor<fp16, [1, 257, 1536]> input_59_cast_fp16 = gelu(mode = input_59_mode_0, x = linear_22_cast_fp16)[name = string("input_59_cast_fp16")];
            tensor<fp16, [384, 1536]> model_encoder_layer_3_mlp_fc2_weight_to_fp16 = const()[name = string("model_encoder_layer_3_mlp_fc2_weight_to_fp16"), val = tensor<fp16, [384, 1536]>(BLOBFILE(path = string("@model_path/weights/weight.bin"), offset = uint64(13675904)))];
            tensor<fp16, [384]> model_encoder_layer_3_mlp_fc2_bias_to_fp16 = const()[name = string("model_encoder_layer_3_mlp_fc2_bias_to_fp16"), val = tensor<fp16, [384]>(BLOBFILE(path = string("@model_path/weights/weight.bin"), offset = uint64(14855616)))];
            tensor<fp16, [1, 257, 384]> linear_23_cast_fp16 = linear(bias = model_encoder_layer_3_mlp_fc2_bias_to_fp16, weight = model_encoder_layer_3_mlp_fc2_weight_to_fp16, x = input_59_cast_fp16)[name = string("linear_23_cast_fp16")];
            tensor<fp16, [384]> model_encoder_layer_3_layer_scale2_lambda1_to_fp16 = const()[name = string("model_encoder_layer_3_layer_scale2_lambda1_to_fp16"), val = tensor<fp16, [384]>(BLOBFILE(path = string("@model_path/weights/weight.bin"), offset = uint64(14856448)))];
            tensor<fp16, [1, 257, 384]> layer_output_7_cast_fp16 = mul(x = linear_23_cast_fp16, y = model_encoder_layer_3_layer_scale2_lambda1_to_fp16)[name = string("layer_output_7_cast_fp16")];
            tensor<fp16, [1, 257, 384]> input_61_cast_fp16 = add(x = layer_output_7_cast_fp16, y = input_53_cast_fp16)[name = string("input_61_cast_fp16")];
            tensor<int32, [1]> hidden_states_9_axes_0 = const()[name = string("hidden_states_9_axes_0"), val = tensor<int32, [1]>([-1])];
            tensor<fp16, [384]> model_encoder_layer_4_norm1_weight_to_fp16 = const()[name = string("model_encoder_layer_4_norm1_weight_to_fp16"), val = tensor<fp16, [384]>(BLOBFILE(path = string("@model_path/weights/weight.bin"), offset = uint64(14857280)))];
            tensor<fp16, [384]> model_encoder_layer_4_norm1_bias_to_fp16 = const()[name = string("model_encoder_layer_4_norm1_bias_to_fp16"), val = tensor<fp16, [384]>(BLOBFILE(path = string("@model_path/weights/weight.bin"), offset = uint64(14858112)))];
            tensor<fp16, [1, 257, 384]> hidden_states_9_cast_fp16 = layer_norm(axes = hidden_states_9_axes_0, beta = model_encoder_layer_4_norm1_bias_to_fp16, epsilon = var_46_to_fp16, gamma = model_encoder_layer_4_norm1_weight_to_fp16, x = input_61_cast_fp16)[name = string("hidden_states_9_cast_fp16")];
            tensor<fp16, [384, 384]> model_encoder_layer_4_attention_attention_key_weight_to_fp16 = const()[name = string("model_encoder_layer_4_attention_attention_key_weight_to_fp16"), val = tensor<fp16, [384, 384]>(BLOBFILE(path = string("@model_path/weights/weight.bin"), offset = uint64(14858944)))];
            tensor<fp16, [384]> model_encoder_layer_4_attention_attention_key_bias_to_fp16 = const()[name = string("model_encoder_layer_4_attention_attention_key_bias_to_fp16"), val = tensor<fp16, [384]>(BLOBFILE(path = string("@model_path/weights/weight.bin"), offset = uint64(15153920)))];
            tensor<fp16, [1, 257, 384]> linear_24_cast_fp16 = linear(bias = model_encoder_layer_4_attention_attention_key_bias_to_fp16, weight = model_encoder_layer_4_attention_attention_key_weight_to_fp16, x = hidden_states_9_cast_fp16)[name = string("linear_24_cast_fp16")];
            tensor<int32, [4]> var_362 = const()[name = string("op_362"), val = tensor<int32, [4]>([1, -1, 6, 64])];
            tensor<fp16, [1, 257, 6, 64]> var_363_cast_fp16 = reshape(shape = var_362, x = linear_24_cast_fp16)[name = string("op_363_cast_fp16")];
            tensor<fp16, [384, 384]> model_encoder_layer_4_attention_attention_value_weight_to_fp16 = const()[name = string("model_encoder_layer_4_attention_attention_value_weight_to_fp16"), val = tensor<fp16, [384, 384]>(BLOBFILE(path = string("@model_path/weights/weight.bin"), offset = uint64(15154752)))];
            tensor<fp16, [384]> model_encoder_layer_4_attention_attention_value_bias_to_fp16 = const()[name = string("model_encoder_layer_4_attention_attention_value_bias_to_fp16"), val = tensor<fp16, [384]>(BLOBFILE(path = string("@model_path/weights/weight.bin"), offset = uint64(15449728)))];
            tensor<fp16, [1, 257, 384]> linear_25_cast_fp16 = linear(bias = model_encoder_layer_4_attention_attention_value_bias_to_fp16, weight = model_encoder_layer_4_attention_attention_value_weight_to_fp16, x = hidden_states_9_cast_fp16)[name = string("linear_25_cast_fp16")];
            tensor<int32, [4]> var_368 = const()[name = string("op_368"), val = tensor<int32, [4]>([1, -1, 6, 64])];
            tensor<fp16, [1, 257, 6, 64]> var_369_cast_fp16 = reshape(shape = var_368, x = linear_25_cast_fp16)[name = string("op_369_cast_fp16")];
            tensor<int32, [4]> value_9_perm_0 = const()[name = string("value_9_perm_0"), val = tensor<int32, [4]>([0, 2, 1, 3])];
            tensor<fp16, [384, 384]> model_encoder_layer_4_attention_attention_query_weight_to_fp16 = const()[name = string("model_encoder_layer_4_attention_attention_query_weight_to_fp16"), val = tensor<fp16, [384, 384]>(BLOBFILE(path = string("@model_path/weights/weight.bin"), offset = uint64(15450560)))];
            tensor<fp16, [384]> model_encoder_layer_4_attention_attention_query_bias_to_fp16 = const()[name = string("model_encoder_layer_4_attention_attention_query_bias_to_fp16"), val = tensor<fp16, [384]>(BLOBFILE(path = string("@model_path/weights/weight.bin"), offset = uint64(15745536)))];
            tensor<fp16, [1, 257, 384]> linear_26_cast_fp16 = linear(bias = model_encoder_layer_4_attention_attention_query_bias_to_fp16, weight = model_encoder_layer_4_attention_attention_query_weight_to_fp16, x = hidden_states_9_cast_fp16)[name = string("linear_26_cast_fp16")];
            tensor<int32, [4]> var_374 = const()[name = string("op_374"), val = tensor<int32, [4]>([1, -1, 6, 64])];
            tensor<fp16, [1, 257, 6, 64]> var_375_cast_fp16 = reshape(shape = var_374, x = linear_26_cast_fp16)[name = string("op_375_cast_fp16")];
            tensor<fp16, [1, 257, 6, 64]> mul_4_cast_fp16 = mul(x = var_375_cast_fp16, y = var_57_to_fp16)[name = string("mul_4_cast_fp16")];
            bool matmul_4_transpose_y_0 = const()[name = string("matmul_4_transpose_y_0"), val = bool(true)];
            bool matmul_4_transpose_x_0 = const()[name = string("matmul_4_transpose_x_0"), val = bool(false)];
            tensor<int32, [4]> transpose_56_perm_0 = const()[name = string("transpose_56_perm_0"), val = tensor<int32, [4]>([0, 2, -3, -1])];
            tensor<int32, [4]> transpose_57_perm_0 = const()[name = string("transpose_57_perm_0"), val = tensor<int32, [4]>([0, 2, -3, -1])];
            tensor<fp16, [1, 6, 257, 64]> transpose_57 = transpose(perm = transpose_57_perm_0, x = var_363_cast_fp16)[name = string("transpose_101")];
            tensor<fp16, [1, 6, 257, 64]> transpose_56 = transpose(perm = transpose_56_perm_0, x = mul_4_cast_fp16)[name = string("transpose_102")];
            tensor<fp16, [1, 6, 257, 257]> matmul_4_cast_fp16 = matmul(transpose_x = matmul_4_transpose_x_0, transpose_y = matmul_4_transpose_y_0, x = transpose_56, y = transpose_57)[name = string("matmul_4_cast_fp16")];
            int32 softmax_4_axis_0 = const()[name = string("softmax_4_axis_0"), val = int32(-1)];
            tensor<fp16, [1, 6, 257, 257]> softmax_4_cast_fp16 = softmax(axis = softmax_4_axis_0, x = matmul_4_cast_fp16)[name = string("softmax_4_cast_fp16")];
            bool attn_output_9_transpose_x_0 = const()[name = string("attn_output_9_transpose_x_0"), val = bool(false)];
            bool attn_output_9_transpose_y_0 = const()[name = string("attn_output_9_transpose_y_0"), val = bool(false)];
            tensor<fp16, [1, 6, 257, 64]> value_9_cast_fp16 = transpose(perm = value_9_perm_0, x = var_369_cast_fp16)[name = string("transpose_103")];
            tensor<fp16, [1, 6, 257, 64]> attn_output_9_cast_fp16 = matmul(transpose_x = attn_output_9_transpose_x_0, transpose_y = attn_output_9_transpose_y_0, x = softmax_4_cast_fp16, y = value_9_cast_fp16)[name = string("attn_output_9_cast_fp16")];
            tensor<int32, [4]> var_378_perm_0 = const()[name = string("op_378_perm_0"), val = tensor<int32, [4]>([0, 2, 1, 3])];
            tensor<int32, [3]> var_382 = const()[name = string("op_382"), val = tensor<int32, [3]>([1, 257, 384])];
            tensor<fp16, [1, 257, 6, 64]> var_378_cast_fp16 = transpose(perm = var_378_perm_0, x = attn_output_9_cast_fp16)[name = string("transpose_100")];
            tensor<fp16, [1, 257, 384]> input_63_cast_fp16 = reshape(shape = var_382, x = var_378_cast_fp16)[name = string("input_63_cast_fp16")];
            tensor<fp16, [384, 384]> model_encoder_layer_4_attention_output_dense_weight_to_fp16 = const()[name = string("model_encoder_layer_4_attention_output_dense_weight_to_fp16"), val = tensor<fp16, [384, 384]>(BLOBFILE(path = string("@model_path/weights/weight.bin"), offset = uint64(15746368)))];
            tensor<fp16, [384]> model_encoder_layer_4_attention_output_dense_bias_to_fp16 = const()[name = string("model_encoder_layer_4_attention_output_dense_bias_to_fp16"), val = tensor<fp16, [384]>(BLOBFILE(path = string("@model_path/weights/weight.bin"), offset = uint64(16041344)))];
            tensor<fp16, [1, 257, 384]> linear_27_cast_fp16 = linear(bias = model_encoder_layer_4_attention_output_dense_bias_to_fp16, weight = model_encoder_layer_4_attention_output_dense_weight_to_fp16, x = input_63_cast_fp16)[name = string("linear_27_cast_fp16")];
            tensor<fp16, [384]> model_encoder_layer_4_layer_scale1_lambda1_to_fp16 = const()[name = string("model_encoder_layer_4_layer_scale1_lambda1_to_fp16"), val = tensor<fp16, [384]>(BLOBFILE(path = string("@model_path/weights/weight.bin"), offset = uint64(16042176)))];
            tensor<fp16, [1, 257, 384]> self_attention_output_9_cast_fp16 = mul(x = linear_27_cast_fp16, y = model_encoder_layer_4_layer_scale1_lambda1_to_fp16)[name = string("self_attention_output_9_cast_fp16")];
            tensor<fp16, [1, 257, 384]> input_67_cast_fp16 = add(x = self_attention_output_9_cast_fp16, y = input_61_cast_fp16)[name = string("input_67_cast_fp16")];
            tensor<int32, [1]> input_69_axes_0 = const()[name = string("input_69_axes_0"), val = tensor<int32, [1]>([-1])];
            tensor<fp16, [384]> model_encoder_layer_4_norm2_weight_to_fp16 = const()[name = string("model_encoder_layer_4_norm2_weight_to_fp16"), val = tensor<fp16, [384]>(BLOBFILE(path = string("@model_path/weights/weight.bin"), offset = uint64(16043008)))];
            tensor<fp16, [384]> model_encoder_layer_4_norm2_bias_to_fp16 = const()[name = string("model_encoder_layer_4_norm2_bias_to_fp16"), val = tensor<fp16, [384]>(BLOBFILE(path = string("@model_path/weights/weight.bin"), offset = uint64(16043840)))];
            tensor<fp16, [1, 257, 384]> input_69_cast_fp16 = layer_norm(axes = input_69_axes_0, beta = model_encoder_layer_4_norm2_bias_to_fp16, epsilon = var_46_to_fp16, gamma = model_encoder_layer_4_norm2_weight_to_fp16, x = input_67_cast_fp16)[name = string("input_69_cast_fp16")];
            tensor<fp16, [1536, 384]> model_encoder_layer_4_mlp_fc1_weight_to_fp16 = const()[name = string("model_encoder_layer_4_mlp_fc1_weight_to_fp16"), val = tensor<fp16, [1536, 384]>(BLOBFILE(path = string("@model_path/weights/weight.bin"), offset = uint64(16044672)))];
            tensor<fp16, [1536]> model_encoder_layer_4_mlp_fc1_bias_to_fp16 = const()[name = string("model_encoder_layer_4_mlp_fc1_bias_to_fp16"), val = tensor<fp16, [1536]>(BLOBFILE(path = string("@model_path/weights/weight.bin"), offset = uint64(17224384)))];
            tensor<fp16, [1, 257, 1536]> linear_28_cast_fp16 = linear(bias = model_encoder_layer_4_mlp_fc1_bias_to_fp16, weight = model_encoder_layer_4_mlp_fc1_weight_to_fp16, x = input_69_cast_fp16)[name = string("linear_28_cast_fp16")];
            string input_73_mode_0 = const()[name = string("input_73_mode_0"), val = string("EXACT")];
            tensor<fp16, [1, 257, 1536]> input_73_cast_fp16 = gelu(mode = input_73_mode_0, x = linear_28_cast_fp16)[name = string("input_73_cast_fp16")];
            tensor<fp16, [384, 1536]> model_encoder_layer_4_mlp_fc2_weight_to_fp16 = const()[name = string("model_encoder_layer_4_mlp_fc2_weight_to_fp16"), val = tensor<fp16, [384, 1536]>(BLOBFILE(path = string("@model_path/weights/weight.bin"), offset = uint64(17227520)))];
            tensor<fp16, [384]> model_encoder_layer_4_mlp_fc2_bias_to_fp16 = const()[name = string("model_encoder_layer_4_mlp_fc2_bias_to_fp16"), val = tensor<fp16, [384]>(BLOBFILE(path = string("@model_path/weights/weight.bin"), offset = uint64(18407232)))];
            tensor<fp16, [1, 257, 384]> linear_29_cast_fp16 = linear(bias = model_encoder_layer_4_mlp_fc2_bias_to_fp16, weight = model_encoder_layer_4_mlp_fc2_weight_to_fp16, x = input_73_cast_fp16)[name = string("linear_29_cast_fp16")];
            tensor<fp16, [384]> model_encoder_layer_4_layer_scale2_lambda1_to_fp16 = const()[name = string("model_encoder_layer_4_layer_scale2_lambda1_to_fp16"), val = tensor<fp16, [384]>(BLOBFILE(path = string("@model_path/weights/weight.bin"), offset = uint64(18408064)))];
            tensor<fp16, [1, 257, 384]> layer_output_9_cast_fp16 = mul(x = linear_29_cast_fp16, y = model_encoder_layer_4_layer_scale2_lambda1_to_fp16)[name = string("layer_output_9_cast_fp16")];
            tensor<fp16, [1, 257, 384]> input_75_cast_fp16 = add(x = layer_output_9_cast_fp16, y = input_67_cast_fp16)[name = string("input_75_cast_fp16")];
            tensor<int32, [1]> hidden_states_11_axes_0 = const()[name = string("hidden_states_11_axes_0"), val = tensor<int32, [1]>([-1])];
            tensor<fp16, [384]> model_encoder_layer_5_norm1_weight_to_fp16 = const()[name = string("model_encoder_layer_5_norm1_weight_to_fp16"), val = tensor<fp16, [384]>(BLOBFILE(path = string("@model_path/weights/weight.bin"), offset = uint64(18408896)))];
            tensor<fp16, [384]> model_encoder_layer_5_norm1_bias_to_fp16 = const()[name = string("model_encoder_layer_5_norm1_bias_to_fp16"), val = tensor<fp16, [384]>(BLOBFILE(path = string("@model_path/weights/weight.bin"), offset = uint64(18409728)))];
            tensor<fp16, [1, 257, 384]> hidden_states_11_cast_fp16 = layer_norm(axes = hidden_states_11_axes_0, beta = model_encoder_layer_5_norm1_bias_to_fp16, epsilon = var_46_to_fp16, gamma = model_encoder_layer_5_norm1_weight_to_fp16, x = input_75_cast_fp16)[name = string("hidden_states_11_cast_fp16")];
            tensor<fp16, [384, 384]> model_encoder_layer_5_attention_attention_key_weight_to_fp16 = const()[name = string("model_encoder_layer_5_attention_attention_key_weight_to_fp16"), val = tensor<fp16, [384, 384]>(BLOBFILE(path = string("@model_path/weights/weight.bin"), offset = uint64(18410560)))];
            tensor<fp16, [384]> model_encoder_layer_5_attention_attention_key_bias_to_fp16 = const()[name = string("model_encoder_layer_5_attention_attention_key_bias_to_fp16"), val = tensor<fp16, [384]>(BLOBFILE(path = string("@model_path/weights/weight.bin"), offset = uint64(18705536)))];
            tensor<fp16, [1, 257, 384]> linear_30_cast_fp16 = linear(bias = model_encoder_layer_5_attention_attention_key_bias_to_fp16, weight = model_encoder_layer_5_attention_attention_key_weight_to_fp16, x = hidden_states_11_cast_fp16)[name = string("linear_30_cast_fp16")];
            tensor<int32, [4]> var_427 = const()[name = string("op_427"), val = tensor<int32, [4]>([1, -1, 6, 64])];
            tensor<fp16, [1, 257, 6, 64]> var_428_cast_fp16 = reshape(shape = var_427, x = linear_30_cast_fp16)[name = string("op_428_cast_fp16")];
            tensor<fp16, [384, 384]> model_encoder_layer_5_attention_attention_value_weight_to_fp16 = const()[name = string("model_encoder_layer_5_attention_attention_value_weight_to_fp16"), val = tensor<fp16, [384, 384]>(BLOBFILE(path = string("@model_path/weights/weight.bin"), offset = uint64(18706368)))];
            tensor<fp16, [384]> model_encoder_layer_5_attention_attention_value_bias_to_fp16 = const()[name = string("model_encoder_layer_5_attention_attention_value_bias_to_fp16"), val = tensor<fp16, [384]>(BLOBFILE(path = string("@model_path/weights/weight.bin"), offset = uint64(19001344)))];
            tensor<fp16, [1, 257, 384]> linear_31_cast_fp16 = linear(bias = model_encoder_layer_5_attention_attention_value_bias_to_fp16, weight = model_encoder_layer_5_attention_attention_value_weight_to_fp16, x = hidden_states_11_cast_fp16)[name = string("linear_31_cast_fp16")];
            tensor<int32, [4]> var_433 = const()[name = string("op_433"), val = tensor<int32, [4]>([1, -1, 6, 64])];
            tensor<fp16, [1, 257, 6, 64]> var_434_cast_fp16 = reshape(shape = var_433, x = linear_31_cast_fp16)[name = string("op_434_cast_fp16")];
            tensor<int32, [4]> value_11_perm_0 = const()[name = string("value_11_perm_0"), val = tensor<int32, [4]>([0, 2, 1, 3])];
            tensor<fp16, [384, 384]> model_encoder_layer_5_attention_attention_query_weight_to_fp16 = const()[name = string("model_encoder_layer_5_attention_attention_query_weight_to_fp16"), val = tensor<fp16, [384, 384]>(BLOBFILE(path = string("@model_path/weights/weight.bin"), offset = uint64(19002176)))];
            tensor<fp16, [384]> model_encoder_layer_5_attention_attention_query_bias_to_fp16 = const()[name = string("model_encoder_layer_5_attention_attention_query_bias_to_fp16"), val = tensor<fp16, [384]>(BLOBFILE(path = string("@model_path/weights/weight.bin"), offset = uint64(19297152)))];
            tensor<fp16, [1, 257, 384]> linear_32_cast_fp16 = linear(bias = model_encoder_layer_5_attention_attention_query_bias_to_fp16, weight = model_encoder_layer_5_attention_attention_query_weight_to_fp16, x = hidden_states_11_cast_fp16)[name = string("linear_32_cast_fp16")];
            tensor<int32, [4]> var_439 = const()[name = string("op_439"), val = tensor<int32, [4]>([1, -1, 6, 64])];
            tensor<fp16, [1, 257, 6, 64]> var_440_cast_fp16 = reshape(shape = var_439, x = linear_32_cast_fp16)[name = string("op_440_cast_fp16")];
            tensor<fp16, [1, 257, 6, 64]> mul_5_cast_fp16 = mul(x = var_440_cast_fp16, y = var_57_to_fp16)[name = string("mul_5_cast_fp16")];
            bool matmul_5_transpose_y_0 = const()[name = string("matmul_5_transpose_y_0"), val = bool(true)];
            bool matmul_5_transpose_x_0 = const()[name = string("matmul_5_transpose_x_0"), val = bool(false)];
            tensor<int32, [4]> transpose_58_perm_0 = const()[name = string("transpose_58_perm_0"), val = tensor<int32, [4]>([0, 2, -3, -1])];
            tensor<int32, [4]> transpose_59_perm_0 = const()[name = string("transpose_59_perm_0"), val = tensor<int32, [4]>([0, 2, -3, -1])];
            tensor<fp16, [1, 6, 257, 64]> transpose_59 = transpose(perm = transpose_59_perm_0, x = var_428_cast_fp16)[name = string("transpose_97")];
            tensor<fp16, [1, 6, 257, 64]> transpose_58 = transpose(perm = transpose_58_perm_0, x = mul_5_cast_fp16)[name = string("transpose_98")];
            tensor<fp16, [1, 6, 257, 257]> matmul_5_cast_fp16 = matmul(transpose_x = matmul_5_transpose_x_0, transpose_y = matmul_5_transpose_y_0, x = transpose_58, y = transpose_59)[name = string("matmul_5_cast_fp16")];
            int32 softmax_5_axis_0 = const()[name = string("softmax_5_axis_0"), val = int32(-1)];
            tensor<fp16, [1, 6, 257, 257]> softmax_5_cast_fp16 = softmax(axis = softmax_5_axis_0, x = matmul_5_cast_fp16)[name = string("softmax_5_cast_fp16")];
            bool attn_output_11_transpose_x_0 = const()[name = string("attn_output_11_transpose_x_0"), val = bool(false)];
            bool attn_output_11_transpose_y_0 = const()[name = string("attn_output_11_transpose_y_0"), val = bool(false)];
            tensor<fp16, [1, 6, 257, 64]> value_11_cast_fp16 = transpose(perm = value_11_perm_0, x = var_434_cast_fp16)[name = string("transpose_99")];
            tensor<fp16, [1, 6, 257, 64]> attn_output_11_cast_fp16 = matmul(transpose_x = attn_output_11_transpose_x_0, transpose_y = attn_output_11_transpose_y_0, x = softmax_5_cast_fp16, y = value_11_cast_fp16)[name = string("attn_output_11_cast_fp16")];
            tensor<int32, [4]> var_443_perm_0 = const()[name = string("op_443_perm_0"), val = tensor<int32, [4]>([0, 2, 1, 3])];
            tensor<int32, [3]> var_447 = const()[name = string("op_447"), val = tensor<int32, [3]>([1, 257, 384])];
            tensor<fp16, [1, 257, 6, 64]> var_443_cast_fp16 = transpose(perm = var_443_perm_0, x = attn_output_11_cast_fp16)[name = string("transpose_96")];
            tensor<fp16, [1, 257, 384]> input_77_cast_fp16 = reshape(shape = var_447, x = var_443_cast_fp16)[name = string("input_77_cast_fp16")];
            tensor<fp16, [384, 384]> model_encoder_layer_5_attention_output_dense_weight_to_fp16 = const()[name = string("model_encoder_layer_5_attention_output_dense_weight_to_fp16"), val = tensor<fp16, [384, 384]>(BLOBFILE(path = string("@model_path/weights/weight.bin"), offset = uint64(19297984)))];
            tensor<fp16, [384]> model_encoder_layer_5_attention_output_dense_bias_to_fp16 = const()[name = string("model_encoder_layer_5_attention_output_dense_bias_to_fp16"), val = tensor<fp16, [384]>(BLOBFILE(path = string("@model_path/weights/weight.bin"), offset = uint64(19592960)))];
            tensor<fp16, [1, 257, 384]> linear_33_cast_fp16 = linear(bias = model_encoder_layer_5_attention_output_dense_bias_to_fp16, weight = model_encoder_layer_5_attention_output_dense_weight_to_fp16, x = input_77_cast_fp16)[name = string("linear_33_cast_fp16")];
            tensor<fp16, [384]> model_encoder_layer_5_layer_scale1_lambda1_to_fp16 = const()[name = string("model_encoder_layer_5_layer_scale1_lambda1_to_fp16"), val = tensor<fp16, [384]>(BLOBFILE(path = string("@model_path/weights/weight.bin"), offset = uint64(19593792)))];
            tensor<fp16, [1, 257, 384]> self_attention_output_11_cast_fp16 = mul(x = linear_33_cast_fp16, y = model_encoder_layer_5_layer_scale1_lambda1_to_fp16)[name = string("self_attention_output_11_cast_fp16")];
            tensor<fp16, [1, 257, 384]> input_81_cast_fp16 = add(x = self_attention_output_11_cast_fp16, y = input_75_cast_fp16)[name = string("input_81_cast_fp16")];
            tensor<int32, [1]> input_83_axes_0 = const()[name = string("input_83_axes_0"), val = tensor<int32, [1]>([-1])];
            tensor<fp16, [384]> model_encoder_layer_5_norm2_weight_to_fp16 = const()[name = string("model_encoder_layer_5_norm2_weight_to_fp16"), val = tensor<fp16, [384]>(BLOBFILE(path = string("@model_path/weights/weight.bin"), offset = uint64(19594624)))];
            tensor<fp16, [384]> model_encoder_layer_5_norm2_bias_to_fp16 = const()[name = string("model_encoder_layer_5_norm2_bias_to_fp16"), val = tensor<fp16, [384]>(BLOBFILE(path = string("@model_path/weights/weight.bin"), offset = uint64(19595456)))];
            tensor<fp16, [1, 257, 384]> input_83_cast_fp16 = layer_norm(axes = input_83_axes_0, beta = model_encoder_layer_5_norm2_bias_to_fp16, epsilon = var_46_to_fp16, gamma = model_encoder_layer_5_norm2_weight_to_fp16, x = input_81_cast_fp16)[name = string("input_83_cast_fp16")];
            tensor<fp16, [1536, 384]> model_encoder_layer_5_mlp_fc1_weight_to_fp16 = const()[name = string("model_encoder_layer_5_mlp_fc1_weight_to_fp16"), val = tensor<fp16, [1536, 384]>(BLOBFILE(path = string("@model_path/weights/weight.bin"), offset = uint64(19596288)))];
            tensor<fp16, [1536]> model_encoder_layer_5_mlp_fc1_bias_to_fp16 = const()[name = string("model_encoder_layer_5_mlp_fc1_bias_to_fp16"), val = tensor<fp16, [1536]>(BLOBFILE(path = string("@model_path/weights/weight.bin"), offset = uint64(20776000)))];
            tensor<fp16, [1, 257, 1536]> linear_34_cast_fp16 = linear(bias = model_encoder_layer_5_mlp_fc1_bias_to_fp16, weight = model_encoder_layer_5_mlp_fc1_weight_to_fp16, x = input_83_cast_fp16)[name = string("linear_34_cast_fp16")];
            string input_87_mode_0 = const()[name = string("input_87_mode_0"), val = string("EXACT")];
            tensor<fp16, [1, 257, 1536]> input_87_cast_fp16 = gelu(mode = input_87_mode_0, x = linear_34_cast_fp16)[name = string("input_87_cast_fp16")];
            tensor<fp16, [384, 1536]> model_encoder_layer_5_mlp_fc2_weight_to_fp16 = const()[name = string("model_encoder_layer_5_mlp_fc2_weight_to_fp16"), val = tensor<fp16, [384, 1536]>(BLOBFILE(path = string("@model_path/weights/weight.bin"), offset = uint64(20779136)))];
            tensor<fp16, [384]> model_encoder_layer_5_mlp_fc2_bias_to_fp16 = const()[name = string("model_encoder_layer_5_mlp_fc2_bias_to_fp16"), val = tensor<fp16, [384]>(BLOBFILE(path = string("@model_path/weights/weight.bin"), offset = uint64(21958848)))];
            tensor<fp16, [1, 257, 384]> linear_35_cast_fp16 = linear(bias = model_encoder_layer_5_mlp_fc2_bias_to_fp16, weight = model_encoder_layer_5_mlp_fc2_weight_to_fp16, x = input_87_cast_fp16)[name = string("linear_35_cast_fp16")];
            tensor<fp16, [384]> model_encoder_layer_5_layer_scale2_lambda1_to_fp16 = const()[name = string("model_encoder_layer_5_layer_scale2_lambda1_to_fp16"), val = tensor<fp16, [384]>(BLOBFILE(path = string("@model_path/weights/weight.bin"), offset = uint64(21959680)))];
            tensor<fp16, [1, 257, 384]> layer_output_11_cast_fp16 = mul(x = linear_35_cast_fp16, y = model_encoder_layer_5_layer_scale2_lambda1_to_fp16)[name = string("layer_output_11_cast_fp16")];
            tensor<fp16, [1, 257, 384]> input_89_cast_fp16 = add(x = layer_output_11_cast_fp16, y = input_81_cast_fp16)[name = string("input_89_cast_fp16")];
            tensor<int32, [1]> hidden_states_13_axes_0 = const()[name = string("hidden_states_13_axes_0"), val = tensor<int32, [1]>([-1])];
            tensor<fp16, [384]> model_encoder_layer_6_norm1_weight_to_fp16 = const()[name = string("model_encoder_layer_6_norm1_weight_to_fp16"), val = tensor<fp16, [384]>(BLOBFILE(path = string("@model_path/weights/weight.bin"), offset = uint64(21960512)))];
            tensor<fp16, [384]> model_encoder_layer_6_norm1_bias_to_fp16 = const()[name = string("model_encoder_layer_6_norm1_bias_to_fp16"), val = tensor<fp16, [384]>(BLOBFILE(path = string("@model_path/weights/weight.bin"), offset = uint64(21961344)))];
            tensor<fp16, [1, 257, 384]> hidden_states_13_cast_fp16 = layer_norm(axes = hidden_states_13_axes_0, beta = model_encoder_layer_6_norm1_bias_to_fp16, epsilon = var_46_to_fp16, gamma = model_encoder_layer_6_norm1_weight_to_fp16, x = input_89_cast_fp16)[name = string("hidden_states_13_cast_fp16")];
            tensor<fp16, [384, 384]> model_encoder_layer_6_attention_attention_key_weight_to_fp16 = const()[name = string("model_encoder_layer_6_attention_attention_key_weight_to_fp16"), val = tensor<fp16, [384, 384]>(BLOBFILE(path = string("@model_path/weights/weight.bin"), offset = uint64(21962176)))];
            tensor<fp16, [384]> model_encoder_layer_6_attention_attention_key_bias_to_fp16 = const()[name = string("model_encoder_layer_6_attention_attention_key_bias_to_fp16"), val = tensor<fp16, [384]>(BLOBFILE(path = string("@model_path/weights/weight.bin"), offset = uint64(22257152)))];
            tensor<fp16, [1, 257, 384]> linear_36_cast_fp16 = linear(bias = model_encoder_layer_6_attention_attention_key_bias_to_fp16, weight = model_encoder_layer_6_attention_attention_key_weight_to_fp16, x = hidden_states_13_cast_fp16)[name = string("linear_36_cast_fp16")];
            tensor<int32, [4]> var_492 = const()[name = string("op_492"), val = tensor<int32, [4]>([1, -1, 6, 64])];
            tensor<fp16, [1, 257, 6, 64]> var_493_cast_fp16 = reshape(shape = var_492, x = linear_36_cast_fp16)[name = string("op_493_cast_fp16")];
            tensor<fp16, [384, 384]> model_encoder_layer_6_attention_attention_value_weight_to_fp16 = const()[name = string("model_encoder_layer_6_attention_attention_value_weight_to_fp16"), val = tensor<fp16, [384, 384]>(BLOBFILE(path = string("@model_path/weights/weight.bin"), offset = uint64(22257984)))];
            tensor<fp16, [384]> model_encoder_layer_6_attention_attention_value_bias_to_fp16 = const()[name = string("model_encoder_layer_6_attention_attention_value_bias_to_fp16"), val = tensor<fp16, [384]>(BLOBFILE(path = string("@model_path/weights/weight.bin"), offset = uint64(22552960)))];
            tensor<fp16, [1, 257, 384]> linear_37_cast_fp16 = linear(bias = model_encoder_layer_6_attention_attention_value_bias_to_fp16, weight = model_encoder_layer_6_attention_attention_value_weight_to_fp16, x = hidden_states_13_cast_fp16)[name = string("linear_37_cast_fp16")];
            tensor<int32, [4]> var_498 = const()[name = string("op_498"), val = tensor<int32, [4]>([1, -1, 6, 64])];
            tensor<fp16, [1, 257, 6, 64]> var_499_cast_fp16 = reshape(shape = var_498, x = linear_37_cast_fp16)[name = string("op_499_cast_fp16")];
            tensor<int32, [4]> value_13_perm_0 = const()[name = string("value_13_perm_0"), val = tensor<int32, [4]>([0, 2, 1, 3])];
            tensor<fp16, [384, 384]> model_encoder_layer_6_attention_attention_query_weight_to_fp16 = const()[name = string("model_encoder_layer_6_attention_attention_query_weight_to_fp16"), val = tensor<fp16, [384, 384]>(BLOBFILE(path = string("@model_path/weights/weight.bin"), offset = uint64(22553792)))];
            tensor<fp16, [384]> model_encoder_layer_6_attention_attention_query_bias_to_fp16 = const()[name = string("model_encoder_layer_6_attention_attention_query_bias_to_fp16"), val = tensor<fp16, [384]>(BLOBFILE(path = string("@model_path/weights/weight.bin"), offset = uint64(22848768)))];
            tensor<fp16, [1, 257, 384]> linear_38_cast_fp16 = linear(bias = model_encoder_layer_6_attention_attention_query_bias_to_fp16, weight = model_encoder_layer_6_attention_attention_query_weight_to_fp16, x = hidden_states_13_cast_fp16)[name = string("linear_38_cast_fp16")];
            tensor<int32, [4]> var_504 = const()[name = string("op_504"), val = tensor<int32, [4]>([1, -1, 6, 64])];
            tensor<fp16, [1, 257, 6, 64]> var_505_cast_fp16 = reshape(shape = var_504, x = linear_38_cast_fp16)[name = string("op_505_cast_fp16")];
            tensor<fp16, [1, 257, 6, 64]> mul_6_cast_fp16 = mul(x = var_505_cast_fp16, y = var_57_to_fp16)[name = string("mul_6_cast_fp16")];
            bool matmul_6_transpose_y_0 = const()[name = string("matmul_6_transpose_y_0"), val = bool(true)];
            bool matmul_6_transpose_x_0 = const()[name = string("matmul_6_transpose_x_0"), val = bool(false)];
            tensor<int32, [4]> transpose_60_perm_0 = const()[name = string("transpose_60_perm_0"), val = tensor<int32, [4]>([0, 2, -3, -1])];
            tensor<int32, [4]> transpose_61_perm_0 = const()[name = string("transpose_61_perm_0"), val = tensor<int32, [4]>([0, 2, -3, -1])];
            tensor<fp16, [1, 6, 257, 64]> transpose_61 = transpose(perm = transpose_61_perm_0, x = var_493_cast_fp16)[name = string("transpose_93")];
            tensor<fp16, [1, 6, 257, 64]> transpose_60 = transpose(perm = transpose_60_perm_0, x = mul_6_cast_fp16)[name = string("transpose_94")];
            tensor<fp16, [1, 6, 257, 257]> matmul_6_cast_fp16 = matmul(transpose_x = matmul_6_transpose_x_0, transpose_y = matmul_6_transpose_y_0, x = transpose_60, y = transpose_61)[name = string("matmul_6_cast_fp16")];
            int32 softmax_6_axis_0 = const()[name = string("softmax_6_axis_0"), val = int32(-1)];
            tensor<fp16, [1, 6, 257, 257]> softmax_6_cast_fp16 = softmax(axis = softmax_6_axis_0, x = matmul_6_cast_fp16)[name = string("softmax_6_cast_fp16")];
            bool attn_output_13_transpose_x_0 = const()[name = string("attn_output_13_transpose_x_0"), val = bool(false)];
            bool attn_output_13_transpose_y_0 = const()[name = string("attn_output_13_transpose_y_0"), val = bool(false)];
            tensor<fp16, [1, 6, 257, 64]> value_13_cast_fp16 = transpose(perm = value_13_perm_0, x = var_499_cast_fp16)[name = string("transpose_95")];
            tensor<fp16, [1, 6, 257, 64]> attn_output_13_cast_fp16 = matmul(transpose_x = attn_output_13_transpose_x_0, transpose_y = attn_output_13_transpose_y_0, x = softmax_6_cast_fp16, y = value_13_cast_fp16)[name = string("attn_output_13_cast_fp16")];
            tensor<int32, [4]> var_508_perm_0 = const()[name = string("op_508_perm_0"), val = tensor<int32, [4]>([0, 2, 1, 3])];
            tensor<int32, [3]> var_512 = const()[name = string("op_512"), val = tensor<int32, [3]>([1, 257, 384])];
            tensor<fp16, [1, 257, 6, 64]> var_508_cast_fp16 = transpose(perm = var_508_perm_0, x = attn_output_13_cast_fp16)[name = string("transpose_92")];
            tensor<fp16, [1, 257, 384]> input_91_cast_fp16 = reshape(shape = var_512, x = var_508_cast_fp16)[name = string("input_91_cast_fp16")];
            tensor<fp16, [384, 384]> model_encoder_layer_6_attention_output_dense_weight_to_fp16 = const()[name = string("model_encoder_layer_6_attention_output_dense_weight_to_fp16"), val = tensor<fp16, [384, 384]>(BLOBFILE(path = string("@model_path/weights/weight.bin"), offset = uint64(22849600)))];
            tensor<fp16, [384]> model_encoder_layer_6_attention_output_dense_bias_to_fp16 = const()[name = string("model_encoder_layer_6_attention_output_dense_bias_to_fp16"), val = tensor<fp16, [384]>(BLOBFILE(path = string("@model_path/weights/weight.bin"), offset = uint64(23144576)))];
            tensor<fp16, [1, 257, 384]> linear_39_cast_fp16 = linear(bias = model_encoder_layer_6_attention_output_dense_bias_to_fp16, weight = model_encoder_layer_6_attention_output_dense_weight_to_fp16, x = input_91_cast_fp16)[name = string("linear_39_cast_fp16")];
            tensor<fp16, [384]> model_encoder_layer_6_layer_scale1_lambda1_to_fp16 = const()[name = string("model_encoder_layer_6_layer_scale1_lambda1_to_fp16"), val = tensor<fp16, [384]>(BLOBFILE(path = string("@model_path/weights/weight.bin"), offset = uint64(23145408)))];
            tensor<fp16, [1, 257, 384]> self_attention_output_13_cast_fp16 = mul(x = linear_39_cast_fp16, y = model_encoder_layer_6_layer_scale1_lambda1_to_fp16)[name = string("self_attention_output_13_cast_fp16")];
            tensor<fp16, [1, 257, 384]> input_95_cast_fp16 = add(x = self_attention_output_13_cast_fp16, y = input_89_cast_fp16)[name = string("input_95_cast_fp16")];
            tensor<int32, [1]> input_97_axes_0 = const()[name = string("input_97_axes_0"), val = tensor<int32, [1]>([-1])];
            tensor<fp16, [384]> model_encoder_layer_6_norm2_weight_to_fp16 = const()[name = string("model_encoder_layer_6_norm2_weight_to_fp16"), val = tensor<fp16, [384]>(BLOBFILE(path = string("@model_path/weights/weight.bin"), offset = uint64(23146240)))];
            tensor<fp16, [384]> model_encoder_layer_6_norm2_bias_to_fp16 = const()[name = string("model_encoder_layer_6_norm2_bias_to_fp16"), val = tensor<fp16, [384]>(BLOBFILE(path = string("@model_path/weights/weight.bin"), offset = uint64(23147072)))];
            tensor<fp16, [1, 257, 384]> input_97_cast_fp16 = layer_norm(axes = input_97_axes_0, beta = model_encoder_layer_6_norm2_bias_to_fp16, epsilon = var_46_to_fp16, gamma = model_encoder_layer_6_norm2_weight_to_fp16, x = input_95_cast_fp16)[name = string("input_97_cast_fp16")];
            tensor<fp16, [1536, 384]> model_encoder_layer_6_mlp_fc1_weight_to_fp16 = const()[name = string("model_encoder_layer_6_mlp_fc1_weight_to_fp16"), val = tensor<fp16, [1536, 384]>(BLOBFILE(path = string("@model_path/weights/weight.bin"), offset = uint64(23147904)))];
            tensor<fp16, [1536]> model_encoder_layer_6_mlp_fc1_bias_to_fp16 = const()[name = string("model_encoder_layer_6_mlp_fc1_bias_to_fp16"), val = tensor<fp16, [1536]>(BLOBFILE(path = string("@model_path/weights/weight.bin"), offset = uint64(24327616)))];
            tensor<fp16, [1, 257, 1536]> linear_40_cast_fp16 = linear(bias = model_encoder_layer_6_mlp_fc1_bias_to_fp16, weight = model_encoder_layer_6_mlp_fc1_weight_to_fp16, x = input_97_cast_fp16)[name = string("linear_40_cast_fp16")];
            string input_101_mode_0 = const()[name = string("input_101_mode_0"), val = string("EXACT")];
            tensor<fp16, [1, 257, 1536]> input_101_cast_fp16 = gelu(mode = input_101_mode_0, x = linear_40_cast_fp16)[name = string("input_101_cast_fp16")];
            tensor<fp16, [384, 1536]> model_encoder_layer_6_mlp_fc2_weight_to_fp16 = const()[name = string("model_encoder_layer_6_mlp_fc2_weight_to_fp16"), val = tensor<fp16, [384, 1536]>(BLOBFILE(path = string("@model_path/weights/weight.bin"), offset = uint64(24330752)))];
            tensor<fp16, [384]> model_encoder_layer_6_mlp_fc2_bias_to_fp16 = const()[name = string("model_encoder_layer_6_mlp_fc2_bias_to_fp16"), val = tensor<fp16, [384]>(BLOBFILE(path = string("@model_path/weights/weight.bin"), offset = uint64(25510464)))];
            tensor<fp16, [1, 257, 384]> linear_41_cast_fp16 = linear(bias = model_encoder_layer_6_mlp_fc2_bias_to_fp16, weight = model_encoder_layer_6_mlp_fc2_weight_to_fp16, x = input_101_cast_fp16)[name = string("linear_41_cast_fp16")];
            tensor<fp16, [384]> model_encoder_layer_6_layer_scale2_lambda1_to_fp16 = const()[name = string("model_encoder_layer_6_layer_scale2_lambda1_to_fp16"), val = tensor<fp16, [384]>(BLOBFILE(path = string("@model_path/weights/weight.bin"), offset = uint64(25511296)))];
            tensor<fp16, [1, 257, 384]> layer_output_13_cast_fp16 = mul(x = linear_41_cast_fp16, y = model_encoder_layer_6_layer_scale2_lambda1_to_fp16)[name = string("layer_output_13_cast_fp16")];
            tensor<fp16, [1, 257, 384]> input_103_cast_fp16 = add(x = layer_output_13_cast_fp16, y = input_95_cast_fp16)[name = string("input_103_cast_fp16")];
            tensor<int32, [1]> hidden_states_15_axes_0 = const()[name = string("hidden_states_15_axes_0"), val = tensor<int32, [1]>([-1])];
            tensor<fp16, [384]> model_encoder_layer_7_norm1_weight_to_fp16 = const()[name = string("model_encoder_layer_7_norm1_weight_to_fp16"), val = tensor<fp16, [384]>(BLOBFILE(path = string("@model_path/weights/weight.bin"), offset = uint64(25512128)))];
            tensor<fp16, [384]> model_encoder_layer_7_norm1_bias_to_fp16 = const()[name = string("model_encoder_layer_7_norm1_bias_to_fp16"), val = tensor<fp16, [384]>(BLOBFILE(path = string("@model_path/weights/weight.bin"), offset = uint64(25512960)))];
            tensor<fp16, [1, 257, 384]> hidden_states_15_cast_fp16 = layer_norm(axes = hidden_states_15_axes_0, beta = model_encoder_layer_7_norm1_bias_to_fp16, epsilon = var_46_to_fp16, gamma = model_encoder_layer_7_norm1_weight_to_fp16, x = input_103_cast_fp16)[name = string("hidden_states_15_cast_fp16")];
            tensor<fp16, [384, 384]> model_encoder_layer_7_attention_attention_key_weight_to_fp16 = const()[name = string("model_encoder_layer_7_attention_attention_key_weight_to_fp16"), val = tensor<fp16, [384, 384]>(BLOBFILE(path = string("@model_path/weights/weight.bin"), offset = uint64(25513792)))];
            tensor<fp16, [384]> model_encoder_layer_7_attention_attention_key_bias_to_fp16 = const()[name = string("model_encoder_layer_7_attention_attention_key_bias_to_fp16"), val = tensor<fp16, [384]>(BLOBFILE(path = string("@model_path/weights/weight.bin"), offset = uint64(25808768)))];
            tensor<fp16, [1, 257, 384]> linear_42_cast_fp16 = linear(bias = model_encoder_layer_7_attention_attention_key_bias_to_fp16, weight = model_encoder_layer_7_attention_attention_key_weight_to_fp16, x = hidden_states_15_cast_fp16)[name = string("linear_42_cast_fp16")];
            tensor<int32, [4]> var_557 = const()[name = string("op_557"), val = tensor<int32, [4]>([1, -1, 6, 64])];
            tensor<fp16, [1, 257, 6, 64]> var_558_cast_fp16 = reshape(shape = var_557, x = linear_42_cast_fp16)[name = string("op_558_cast_fp16")];
            tensor<fp16, [384, 384]> model_encoder_layer_7_attention_attention_value_weight_to_fp16 = const()[name = string("model_encoder_layer_7_attention_attention_value_weight_to_fp16"), val = tensor<fp16, [384, 384]>(BLOBFILE(path = string("@model_path/weights/weight.bin"), offset = uint64(25809600)))];
            tensor<fp16, [384]> model_encoder_layer_7_attention_attention_value_bias_to_fp16 = const()[name = string("model_encoder_layer_7_attention_attention_value_bias_to_fp16"), val = tensor<fp16, [384]>(BLOBFILE(path = string("@model_path/weights/weight.bin"), offset = uint64(26104576)))];
            tensor<fp16, [1, 257, 384]> linear_43_cast_fp16 = linear(bias = model_encoder_layer_7_attention_attention_value_bias_to_fp16, weight = model_encoder_layer_7_attention_attention_value_weight_to_fp16, x = hidden_states_15_cast_fp16)[name = string("linear_43_cast_fp16")];
            tensor<int32, [4]> var_563 = const()[name = string("op_563"), val = tensor<int32, [4]>([1, -1, 6, 64])];
            tensor<fp16, [1, 257, 6, 64]> var_564_cast_fp16 = reshape(shape = var_563, x = linear_43_cast_fp16)[name = string("op_564_cast_fp16")];
            tensor<int32, [4]> value_15_perm_0 = const()[name = string("value_15_perm_0"), val = tensor<int32, [4]>([0, 2, 1, 3])];
            tensor<fp16, [384, 384]> model_encoder_layer_7_attention_attention_query_weight_to_fp16 = const()[name = string("model_encoder_layer_7_attention_attention_query_weight_to_fp16"), val = tensor<fp16, [384, 384]>(BLOBFILE(path = string("@model_path/weights/weight.bin"), offset = uint64(26105408)))];
            tensor<fp16, [384]> model_encoder_layer_7_attention_attention_query_bias_to_fp16 = const()[name = string("model_encoder_layer_7_attention_attention_query_bias_to_fp16"), val = tensor<fp16, [384]>(BLOBFILE(path = string("@model_path/weights/weight.bin"), offset = uint64(26400384)))];
            tensor<fp16, [1, 257, 384]> linear_44_cast_fp16 = linear(bias = model_encoder_layer_7_attention_attention_query_bias_to_fp16, weight = model_encoder_layer_7_attention_attention_query_weight_to_fp16, x = hidden_states_15_cast_fp16)[name = string("linear_44_cast_fp16")];
            tensor<int32, [4]> var_569 = const()[name = string("op_569"), val = tensor<int32, [4]>([1, -1, 6, 64])];
            tensor<fp16, [1, 257, 6, 64]> var_570_cast_fp16 = reshape(shape = var_569, x = linear_44_cast_fp16)[name = string("op_570_cast_fp16")];
            tensor<fp16, [1, 257, 6, 64]> mul_7_cast_fp16 = mul(x = var_570_cast_fp16, y = var_57_to_fp16)[name = string("mul_7_cast_fp16")];
            bool matmul_7_transpose_y_0 = const()[name = string("matmul_7_transpose_y_0"), val = bool(true)];
            bool matmul_7_transpose_x_0 = const()[name = string("matmul_7_transpose_x_0"), val = bool(false)];
            tensor<int32, [4]> transpose_62_perm_0 = const()[name = string("transpose_62_perm_0"), val = tensor<int32, [4]>([0, 2, -3, -1])];
            tensor<int32, [4]> transpose_63_perm_0 = const()[name = string("transpose_63_perm_0"), val = tensor<int32, [4]>([0, 2, -3, -1])];
            tensor<fp16, [1, 6, 257, 64]> transpose_63 = transpose(perm = transpose_63_perm_0, x = var_558_cast_fp16)[name = string("transpose_89")];
            tensor<fp16, [1, 6, 257, 64]> transpose_62 = transpose(perm = transpose_62_perm_0, x = mul_7_cast_fp16)[name = string("transpose_90")];
            tensor<fp16, [1, 6, 257, 257]> matmul_7_cast_fp16 = matmul(transpose_x = matmul_7_transpose_x_0, transpose_y = matmul_7_transpose_y_0, x = transpose_62, y = transpose_63)[name = string("matmul_7_cast_fp16")];
            int32 softmax_7_axis_0 = const()[name = string("softmax_7_axis_0"), val = int32(-1)];
            tensor<fp16, [1, 6, 257, 257]> softmax_7_cast_fp16 = softmax(axis = softmax_7_axis_0, x = matmul_7_cast_fp16)[name = string("softmax_7_cast_fp16")];
            bool attn_output_15_transpose_x_0 = const()[name = string("attn_output_15_transpose_x_0"), val = bool(false)];
            bool attn_output_15_transpose_y_0 = const()[name = string("attn_output_15_transpose_y_0"), val = bool(false)];
            tensor<fp16, [1, 6, 257, 64]> value_15_cast_fp16 = transpose(perm = value_15_perm_0, x = var_564_cast_fp16)[name = string("transpose_91")];
            tensor<fp16, [1, 6, 257, 64]> attn_output_15_cast_fp16 = matmul(transpose_x = attn_output_15_transpose_x_0, transpose_y = attn_output_15_transpose_y_0, x = softmax_7_cast_fp16, y = value_15_cast_fp16)[name = string("attn_output_15_cast_fp16")];
            tensor<int32, [4]> var_573_perm_0 = const()[name = string("op_573_perm_0"), val = tensor<int32, [4]>([0, 2, 1, 3])];
            tensor<int32, [3]> var_577 = const()[name = string("op_577"), val = tensor<int32, [3]>([1, 257, 384])];
            tensor<fp16, [1, 257, 6, 64]> var_573_cast_fp16 = transpose(perm = var_573_perm_0, x = attn_output_15_cast_fp16)[name = string("transpose_88")];
            tensor<fp16, [1, 257, 384]> input_105_cast_fp16 = reshape(shape = var_577, x = var_573_cast_fp16)[name = string("input_105_cast_fp16")];
            tensor<fp16, [384, 384]> model_encoder_layer_7_attention_output_dense_weight_to_fp16 = const()[name = string("model_encoder_layer_7_attention_output_dense_weight_to_fp16"), val = tensor<fp16, [384, 384]>(BLOBFILE(path = string("@model_path/weights/weight.bin"), offset = uint64(26401216)))];
            tensor<fp16, [384]> model_encoder_layer_7_attention_output_dense_bias_to_fp16 = const()[name = string("model_encoder_layer_7_attention_output_dense_bias_to_fp16"), val = tensor<fp16, [384]>(BLOBFILE(path = string("@model_path/weights/weight.bin"), offset = uint64(26696192)))];
            tensor<fp16, [1, 257, 384]> linear_45_cast_fp16 = linear(bias = model_encoder_layer_7_attention_output_dense_bias_to_fp16, weight = model_encoder_layer_7_attention_output_dense_weight_to_fp16, x = input_105_cast_fp16)[name = string("linear_45_cast_fp16")];
            tensor<fp16, [384]> model_encoder_layer_7_layer_scale1_lambda1_to_fp16 = const()[name = string("model_encoder_layer_7_layer_scale1_lambda1_to_fp16"), val = tensor<fp16, [384]>(BLOBFILE(path = string("@model_path/weights/weight.bin"), offset = uint64(26697024)))];
            tensor<fp16, [1, 257, 384]> self_attention_output_15_cast_fp16 = mul(x = linear_45_cast_fp16, y = model_encoder_layer_7_layer_scale1_lambda1_to_fp16)[name = string("self_attention_output_15_cast_fp16")];
            tensor<fp16, [1, 257, 384]> input_109_cast_fp16 = add(x = self_attention_output_15_cast_fp16, y = input_103_cast_fp16)[name = string("input_109_cast_fp16")];
            tensor<int32, [1]> input_111_axes_0 = const()[name = string("input_111_axes_0"), val = tensor<int32, [1]>([-1])];
            tensor<fp16, [384]> model_encoder_layer_7_norm2_weight_to_fp16 = const()[name = string("model_encoder_layer_7_norm2_weight_to_fp16"), val = tensor<fp16, [384]>(BLOBFILE(path = string("@model_path/weights/weight.bin"), offset = uint64(26697856)))];
            tensor<fp16, [384]> model_encoder_layer_7_norm2_bias_to_fp16 = const()[name = string("model_encoder_layer_7_norm2_bias_to_fp16"), val = tensor<fp16, [384]>(BLOBFILE(path = string("@model_path/weights/weight.bin"), offset = uint64(26698688)))];
            tensor<fp16, [1, 257, 384]> input_111_cast_fp16 = layer_norm(axes = input_111_axes_0, beta = model_encoder_layer_7_norm2_bias_to_fp16, epsilon = var_46_to_fp16, gamma = model_encoder_layer_7_norm2_weight_to_fp16, x = input_109_cast_fp16)[name = string("input_111_cast_fp16")];
            tensor<fp16, [1536, 384]> model_encoder_layer_7_mlp_fc1_weight_to_fp16 = const()[name = string("model_encoder_layer_7_mlp_fc1_weight_to_fp16"), val = tensor<fp16, [1536, 384]>(BLOBFILE(path = string("@model_path/weights/weight.bin"), offset = uint64(26699520)))];
            tensor<fp16, [1536]> model_encoder_layer_7_mlp_fc1_bias_to_fp16 = const()[name = string("model_encoder_layer_7_mlp_fc1_bias_to_fp16"), val = tensor<fp16, [1536]>(BLOBFILE(path = string("@model_path/weights/weight.bin"), offset = uint64(27879232)))];
            tensor<fp16, [1, 257, 1536]> linear_46_cast_fp16 = linear(bias = model_encoder_layer_7_mlp_fc1_bias_to_fp16, weight = model_encoder_layer_7_mlp_fc1_weight_to_fp16, x = input_111_cast_fp16)[name = string("linear_46_cast_fp16")];
            string input_115_mode_0 = const()[name = string("input_115_mode_0"), val = string("EXACT")];
            tensor<fp16, [1, 257, 1536]> input_115_cast_fp16 = gelu(mode = input_115_mode_0, x = linear_46_cast_fp16)[name = string("input_115_cast_fp16")];
            tensor<fp16, [384, 1536]> model_encoder_layer_7_mlp_fc2_weight_to_fp16 = const()[name = string("model_encoder_layer_7_mlp_fc2_weight_to_fp16"), val = tensor<fp16, [384, 1536]>(BLOBFILE(path = string("@model_path/weights/weight.bin"), offset = uint64(27882368)))];
            tensor<fp16, [384]> model_encoder_layer_7_mlp_fc2_bias_to_fp16 = const()[name = string("model_encoder_layer_7_mlp_fc2_bias_to_fp16"), val = tensor<fp16, [384]>(BLOBFILE(path = string("@model_path/weights/weight.bin"), offset = uint64(29062080)))];
            tensor<fp16, [1, 257, 384]> linear_47_cast_fp16 = linear(bias = model_encoder_layer_7_mlp_fc2_bias_to_fp16, weight = model_encoder_layer_7_mlp_fc2_weight_to_fp16, x = input_115_cast_fp16)[name = string("linear_47_cast_fp16")];
            tensor<fp16, [384]> model_encoder_layer_7_layer_scale2_lambda1_to_fp16 = const()[name = string("model_encoder_layer_7_layer_scale2_lambda1_to_fp16"), val = tensor<fp16, [384]>(BLOBFILE(path = string("@model_path/weights/weight.bin"), offset = uint64(29062912)))];
            tensor<fp16, [1, 257, 384]> layer_output_15_cast_fp16 = mul(x = linear_47_cast_fp16, y = model_encoder_layer_7_layer_scale2_lambda1_to_fp16)[name = string("layer_output_15_cast_fp16")];
            tensor<fp16, [1, 257, 384]> input_117_cast_fp16 = add(x = layer_output_15_cast_fp16, y = input_109_cast_fp16)[name = string("input_117_cast_fp16")];
            tensor<int32, [1]> hidden_states_17_axes_0 = const()[name = string("hidden_states_17_axes_0"), val = tensor<int32, [1]>([-1])];
            tensor<fp16, [384]> model_encoder_layer_8_norm1_weight_to_fp16 = const()[name = string("model_encoder_layer_8_norm1_weight_to_fp16"), val = tensor<fp16, [384]>(BLOBFILE(path = string("@model_path/weights/weight.bin"), offset = uint64(29063744)))];
            tensor<fp16, [384]> model_encoder_layer_8_norm1_bias_to_fp16 = const()[name = string("model_encoder_layer_8_norm1_bias_to_fp16"), val = tensor<fp16, [384]>(BLOBFILE(path = string("@model_path/weights/weight.bin"), offset = uint64(29064576)))];
            tensor<fp16, [1, 257, 384]> hidden_states_17_cast_fp16 = layer_norm(axes = hidden_states_17_axes_0, beta = model_encoder_layer_8_norm1_bias_to_fp16, epsilon = var_46_to_fp16, gamma = model_encoder_layer_8_norm1_weight_to_fp16, x = input_117_cast_fp16)[name = string("hidden_states_17_cast_fp16")];
            tensor<fp16, [384, 384]> model_encoder_layer_8_attention_attention_key_weight_to_fp16 = const()[name = string("model_encoder_layer_8_attention_attention_key_weight_to_fp16"), val = tensor<fp16, [384, 384]>(BLOBFILE(path = string("@model_path/weights/weight.bin"), offset = uint64(29065408)))];
            tensor<fp16, [384]> model_encoder_layer_8_attention_attention_key_bias_to_fp16 = const()[name = string("model_encoder_layer_8_attention_attention_key_bias_to_fp16"), val = tensor<fp16, [384]>(BLOBFILE(path = string("@model_path/weights/weight.bin"), offset = uint64(29360384)))];
            tensor<fp16, [1, 257, 384]> linear_48_cast_fp16 = linear(bias = model_encoder_layer_8_attention_attention_key_bias_to_fp16, weight = model_encoder_layer_8_attention_attention_key_weight_to_fp16, x = hidden_states_17_cast_fp16)[name = string("linear_48_cast_fp16")];
            tensor<int32, [4]> var_622 = const()[name = string("op_622"), val = tensor<int32, [4]>([1, -1, 6, 64])];
            tensor<fp16, [1, 257, 6, 64]> var_623_cast_fp16 = reshape(shape = var_622, x = linear_48_cast_fp16)[name = string("op_623_cast_fp16")];
            tensor<fp16, [384, 384]> model_encoder_layer_8_attention_attention_value_weight_to_fp16 = const()[name = string("model_encoder_layer_8_attention_attention_value_weight_to_fp16"), val = tensor<fp16, [384, 384]>(BLOBFILE(path = string("@model_path/weights/weight.bin"), offset = uint64(29361216)))];
            tensor<fp16, [384]> model_encoder_layer_8_attention_attention_value_bias_to_fp16 = const()[name = string("model_encoder_layer_8_attention_attention_value_bias_to_fp16"), val = tensor<fp16, [384]>(BLOBFILE(path = string("@model_path/weights/weight.bin"), offset = uint64(29656192)))];
            tensor<fp16, [1, 257, 384]> linear_49_cast_fp16 = linear(bias = model_encoder_layer_8_attention_attention_value_bias_to_fp16, weight = model_encoder_layer_8_attention_attention_value_weight_to_fp16, x = hidden_states_17_cast_fp16)[name = string("linear_49_cast_fp16")];
            tensor<int32, [4]> var_628 = const()[name = string("op_628"), val = tensor<int32, [4]>([1, -1, 6, 64])];
            tensor<fp16, [1, 257, 6, 64]> var_629_cast_fp16 = reshape(shape = var_628, x = linear_49_cast_fp16)[name = string("op_629_cast_fp16")];
            tensor<int32, [4]> value_17_perm_0 = const()[name = string("value_17_perm_0"), val = tensor<int32, [4]>([0, 2, 1, 3])];
            tensor<fp16, [384, 384]> model_encoder_layer_8_attention_attention_query_weight_to_fp16 = const()[name = string("model_encoder_layer_8_attention_attention_query_weight_to_fp16"), val = tensor<fp16, [384, 384]>(BLOBFILE(path = string("@model_path/weights/weight.bin"), offset = uint64(29657024)))];
            tensor<fp16, [384]> model_encoder_layer_8_attention_attention_query_bias_to_fp16 = const()[name = string("model_encoder_layer_8_attention_attention_query_bias_to_fp16"), val = tensor<fp16, [384]>(BLOBFILE(path = string("@model_path/weights/weight.bin"), offset = uint64(29952000)))];
            tensor<fp16, [1, 257, 384]> linear_50_cast_fp16 = linear(bias = model_encoder_layer_8_attention_attention_query_bias_to_fp16, weight = model_encoder_layer_8_attention_attention_query_weight_to_fp16, x = hidden_states_17_cast_fp16)[name = string("linear_50_cast_fp16")];
            tensor<int32, [4]> var_634 = const()[name = string("op_634"), val = tensor<int32, [4]>([1, -1, 6, 64])];
            tensor<fp16, [1, 257, 6, 64]> var_635_cast_fp16 = reshape(shape = var_634, x = linear_50_cast_fp16)[name = string("op_635_cast_fp16")];
            tensor<fp16, [1, 257, 6, 64]> mul_8_cast_fp16 = mul(x = var_635_cast_fp16, y = var_57_to_fp16)[name = string("mul_8_cast_fp16")];
            bool matmul_8_transpose_y_0 = const()[name = string("matmul_8_transpose_y_0"), val = bool(true)];
            bool matmul_8_transpose_x_0 = const()[name = string("matmul_8_transpose_x_0"), val = bool(false)];
            tensor<int32, [4]> transpose_64_perm_0 = const()[name = string("transpose_64_perm_0"), val = tensor<int32, [4]>([0, 2, -3, -1])];
            tensor<int32, [4]> transpose_65_perm_0 = const()[name = string("transpose_65_perm_0"), val = tensor<int32, [4]>([0, 2, -3, -1])];
            tensor<fp16, [1, 6, 257, 64]> transpose_65 = transpose(perm = transpose_65_perm_0, x = var_623_cast_fp16)[name = string("transpose_85")];
            tensor<fp16, [1, 6, 257, 64]> transpose_64 = transpose(perm = transpose_64_perm_0, x = mul_8_cast_fp16)[name = string("transpose_86")];
            tensor<fp16, [1, 6, 257, 257]> matmul_8_cast_fp16 = matmul(transpose_x = matmul_8_transpose_x_0, transpose_y = matmul_8_transpose_y_0, x = transpose_64, y = transpose_65)[name = string("matmul_8_cast_fp16")];
            int32 softmax_8_axis_0 = const()[name = string("softmax_8_axis_0"), val = int32(-1)];
            tensor<fp16, [1, 6, 257, 257]> softmax_8_cast_fp16 = softmax(axis = softmax_8_axis_0, x = matmul_8_cast_fp16)[name = string("softmax_8_cast_fp16")];
            bool attn_output_17_transpose_x_0 = const()[name = string("attn_output_17_transpose_x_0"), val = bool(false)];
            bool attn_output_17_transpose_y_0 = const()[name = string("attn_output_17_transpose_y_0"), val = bool(false)];
            tensor<fp16, [1, 6, 257, 64]> value_17_cast_fp16 = transpose(perm = value_17_perm_0, x = var_629_cast_fp16)[name = string("transpose_87")];
            tensor<fp16, [1, 6, 257, 64]> attn_output_17_cast_fp16 = matmul(transpose_x = attn_output_17_transpose_x_0, transpose_y = attn_output_17_transpose_y_0, x = softmax_8_cast_fp16, y = value_17_cast_fp16)[name = string("attn_output_17_cast_fp16")];
            tensor<int32, [4]> var_638_perm_0 = const()[name = string("op_638_perm_0"), val = tensor<int32, [4]>([0, 2, 1, 3])];
            tensor<int32, [3]> var_642 = const()[name = string("op_642"), val = tensor<int32, [3]>([1, 257, 384])];
            tensor<fp16, [1, 257, 6, 64]> var_638_cast_fp16 = transpose(perm = var_638_perm_0, x = attn_output_17_cast_fp16)[name = string("transpose_84")];
            tensor<fp16, [1, 257, 384]> input_119_cast_fp16 = reshape(shape = var_642, x = var_638_cast_fp16)[name = string("input_119_cast_fp16")];
            tensor<fp16, [384, 384]> model_encoder_layer_8_attention_output_dense_weight_to_fp16 = const()[name = string("model_encoder_layer_8_attention_output_dense_weight_to_fp16"), val = tensor<fp16, [384, 384]>(BLOBFILE(path = string("@model_path/weights/weight.bin"), offset = uint64(29952832)))];
            tensor<fp16, [384]> model_encoder_layer_8_attention_output_dense_bias_to_fp16 = const()[name = string("model_encoder_layer_8_attention_output_dense_bias_to_fp16"), val = tensor<fp16, [384]>(BLOBFILE(path = string("@model_path/weights/weight.bin"), offset = uint64(30247808)))];
            tensor<fp16, [1, 257, 384]> linear_51_cast_fp16 = linear(bias = model_encoder_layer_8_attention_output_dense_bias_to_fp16, weight = model_encoder_layer_8_attention_output_dense_weight_to_fp16, x = input_119_cast_fp16)[name = string("linear_51_cast_fp16")];
            tensor<fp16, [384]> model_encoder_layer_8_layer_scale1_lambda1_to_fp16 = const()[name = string("model_encoder_layer_8_layer_scale1_lambda1_to_fp16"), val = tensor<fp16, [384]>(BLOBFILE(path = string("@model_path/weights/weight.bin"), offset = uint64(30248640)))];
            tensor<fp16, [1, 257, 384]> self_attention_output_17_cast_fp16 = mul(x = linear_51_cast_fp16, y = model_encoder_layer_8_layer_scale1_lambda1_to_fp16)[name = string("self_attention_output_17_cast_fp16")];
            tensor<fp16, [1, 257, 384]> input_123_cast_fp16 = add(x = self_attention_output_17_cast_fp16, y = input_117_cast_fp16)[name = string("input_123_cast_fp16")];
            tensor<int32, [1]> input_125_axes_0 = const()[name = string("input_125_axes_0"), val = tensor<int32, [1]>([-1])];
            tensor<fp16, [384]> model_encoder_layer_8_norm2_weight_to_fp16 = const()[name = string("model_encoder_layer_8_norm2_weight_to_fp16"), val = tensor<fp16, [384]>(BLOBFILE(path = string("@model_path/weights/weight.bin"), offset = uint64(30249472)))];
            tensor<fp16, [384]> model_encoder_layer_8_norm2_bias_to_fp16 = const()[name = string("model_encoder_layer_8_norm2_bias_to_fp16"), val = tensor<fp16, [384]>(BLOBFILE(path = string("@model_path/weights/weight.bin"), offset = uint64(30250304)))];
            tensor<fp16, [1, 257, 384]> input_125_cast_fp16 = layer_norm(axes = input_125_axes_0, beta = model_encoder_layer_8_norm2_bias_to_fp16, epsilon = var_46_to_fp16, gamma = model_encoder_layer_8_norm2_weight_to_fp16, x = input_123_cast_fp16)[name = string("input_125_cast_fp16")];
            tensor<fp16, [1536, 384]> model_encoder_layer_8_mlp_fc1_weight_to_fp16 = const()[name = string("model_encoder_layer_8_mlp_fc1_weight_to_fp16"), val = tensor<fp16, [1536, 384]>(BLOBFILE(path = string("@model_path/weights/weight.bin"), offset = uint64(30251136)))];
            tensor<fp16, [1536]> model_encoder_layer_8_mlp_fc1_bias_to_fp16 = const()[name = string("model_encoder_layer_8_mlp_fc1_bias_to_fp16"), val = tensor<fp16, [1536]>(BLOBFILE(path = string("@model_path/weights/weight.bin"), offset = uint64(31430848)))];
            tensor<fp16, [1, 257, 1536]> linear_52_cast_fp16 = linear(bias = model_encoder_layer_8_mlp_fc1_bias_to_fp16, weight = model_encoder_layer_8_mlp_fc1_weight_to_fp16, x = input_125_cast_fp16)[name = string("linear_52_cast_fp16")];
            string input_129_mode_0 = const()[name = string("input_129_mode_0"), val = string("EXACT")];
            tensor<fp16, [1, 257, 1536]> input_129_cast_fp16 = gelu(mode = input_129_mode_0, x = linear_52_cast_fp16)[name = string("input_129_cast_fp16")];
            tensor<fp16, [384, 1536]> model_encoder_layer_8_mlp_fc2_weight_to_fp16 = const()[name = string("model_encoder_layer_8_mlp_fc2_weight_to_fp16"), val = tensor<fp16, [384, 1536]>(BLOBFILE(path = string("@model_path/weights/weight.bin"), offset = uint64(31433984)))];
            tensor<fp16, [384]> model_encoder_layer_8_mlp_fc2_bias_to_fp16 = const()[name = string("model_encoder_layer_8_mlp_fc2_bias_to_fp16"), val = tensor<fp16, [384]>(BLOBFILE(path = string("@model_path/weights/weight.bin"), offset = uint64(32613696)))];
            tensor<fp16, [1, 257, 384]> linear_53_cast_fp16 = linear(bias = model_encoder_layer_8_mlp_fc2_bias_to_fp16, weight = model_encoder_layer_8_mlp_fc2_weight_to_fp16, x = input_129_cast_fp16)[name = string("linear_53_cast_fp16")];
            tensor<fp16, [384]> model_encoder_layer_8_layer_scale2_lambda1_to_fp16 = const()[name = string("model_encoder_layer_8_layer_scale2_lambda1_to_fp16"), val = tensor<fp16, [384]>(BLOBFILE(path = string("@model_path/weights/weight.bin"), offset = uint64(32614528)))];
            tensor<fp16, [1, 257, 384]> layer_output_17_cast_fp16 = mul(x = linear_53_cast_fp16, y = model_encoder_layer_8_layer_scale2_lambda1_to_fp16)[name = string("layer_output_17_cast_fp16")];
            tensor<fp16, [1, 257, 384]> input_131_cast_fp16 = add(x = layer_output_17_cast_fp16, y = input_123_cast_fp16)[name = string("input_131_cast_fp16")];
            tensor<int32, [1]> hidden_states_19_axes_0 = const()[name = string("hidden_states_19_axes_0"), val = tensor<int32, [1]>([-1])];
            tensor<fp16, [384]> model_encoder_layer_9_norm1_weight_to_fp16 = const()[name = string("model_encoder_layer_9_norm1_weight_to_fp16"), val = tensor<fp16, [384]>(BLOBFILE(path = string("@model_path/weights/weight.bin"), offset = uint64(32615360)))];
            tensor<fp16, [384]> model_encoder_layer_9_norm1_bias_to_fp16 = const()[name = string("model_encoder_layer_9_norm1_bias_to_fp16"), val = tensor<fp16, [384]>(BLOBFILE(path = string("@model_path/weights/weight.bin"), offset = uint64(32616192)))];
            tensor<fp16, [1, 257, 384]> hidden_states_19_cast_fp16 = layer_norm(axes = hidden_states_19_axes_0, beta = model_encoder_layer_9_norm1_bias_to_fp16, epsilon = var_46_to_fp16, gamma = model_encoder_layer_9_norm1_weight_to_fp16, x = input_131_cast_fp16)[name = string("hidden_states_19_cast_fp16")];
            tensor<fp16, [384, 384]> model_encoder_layer_9_attention_attention_key_weight_to_fp16 = const()[name = string("model_encoder_layer_9_attention_attention_key_weight_to_fp16"), val = tensor<fp16, [384, 384]>(BLOBFILE(path = string("@model_path/weights/weight.bin"), offset = uint64(32617024)))];
            tensor<fp16, [384]> model_encoder_layer_9_attention_attention_key_bias_to_fp16 = const()[name = string("model_encoder_layer_9_attention_attention_key_bias_to_fp16"), val = tensor<fp16, [384]>(BLOBFILE(path = string("@model_path/weights/weight.bin"), offset = uint64(32912000)))];
            tensor<fp16, [1, 257, 384]> linear_54_cast_fp16 = linear(bias = model_encoder_layer_9_attention_attention_key_bias_to_fp16, weight = model_encoder_layer_9_attention_attention_key_weight_to_fp16, x = hidden_states_19_cast_fp16)[name = string("linear_54_cast_fp16")];
            tensor<int32, [4]> var_687 = const()[name = string("op_687"), val = tensor<int32, [4]>([1, -1, 6, 64])];
            tensor<fp16, [1, 257, 6, 64]> var_688_cast_fp16 = reshape(shape = var_687, x = linear_54_cast_fp16)[name = string("op_688_cast_fp16")];
            tensor<fp16, [384, 384]> model_encoder_layer_9_attention_attention_value_weight_to_fp16 = const()[name = string("model_encoder_layer_9_attention_attention_value_weight_to_fp16"), val = tensor<fp16, [384, 384]>(BLOBFILE(path = string("@model_path/weights/weight.bin"), offset = uint64(32912832)))];
            tensor<fp16, [384]> model_encoder_layer_9_attention_attention_value_bias_to_fp16 = const()[name = string("model_encoder_layer_9_attention_attention_value_bias_to_fp16"), val = tensor<fp16, [384]>(BLOBFILE(path = string("@model_path/weights/weight.bin"), offset = uint64(33207808)))];
            tensor<fp16, [1, 257, 384]> linear_55_cast_fp16 = linear(bias = model_encoder_layer_9_attention_attention_value_bias_to_fp16, weight = model_encoder_layer_9_attention_attention_value_weight_to_fp16, x = hidden_states_19_cast_fp16)[name = string("linear_55_cast_fp16")];
            tensor<int32, [4]> var_693 = const()[name = string("op_693"), val = tensor<int32, [4]>([1, -1, 6, 64])];
            tensor<fp16, [1, 257, 6, 64]> var_694_cast_fp16 = reshape(shape = var_693, x = linear_55_cast_fp16)[name = string("op_694_cast_fp16")];
            tensor<int32, [4]> value_19_perm_0 = const()[name = string("value_19_perm_0"), val = tensor<int32, [4]>([0, 2, 1, 3])];
            tensor<fp16, [384, 384]> model_encoder_layer_9_attention_attention_query_weight_to_fp16 = const()[name = string("model_encoder_layer_9_attention_attention_query_weight_to_fp16"), val = tensor<fp16, [384, 384]>(BLOBFILE(path = string("@model_path/weights/weight.bin"), offset = uint64(33208640)))];
            tensor<fp16, [384]> model_encoder_layer_9_attention_attention_query_bias_to_fp16 = const()[name = string("model_encoder_layer_9_attention_attention_query_bias_to_fp16"), val = tensor<fp16, [384]>(BLOBFILE(path = string("@model_path/weights/weight.bin"), offset = uint64(33503616)))];
            tensor<fp16, [1, 257, 384]> linear_56_cast_fp16 = linear(bias = model_encoder_layer_9_attention_attention_query_bias_to_fp16, weight = model_encoder_layer_9_attention_attention_query_weight_to_fp16, x = hidden_states_19_cast_fp16)[name = string("linear_56_cast_fp16")];
            tensor<int32, [4]> var_699 = const()[name = string("op_699"), val = tensor<int32, [4]>([1, -1, 6, 64])];
            tensor<fp16, [1, 257, 6, 64]> var_700_cast_fp16 = reshape(shape = var_699, x = linear_56_cast_fp16)[name = string("op_700_cast_fp16")];
            tensor<fp16, [1, 257, 6, 64]> mul_9_cast_fp16 = mul(x = var_700_cast_fp16, y = var_57_to_fp16)[name = string("mul_9_cast_fp16")];
            bool matmul_9_transpose_y_0 = const()[name = string("matmul_9_transpose_y_0"), val = bool(true)];
            bool matmul_9_transpose_x_0 = const()[name = string("matmul_9_transpose_x_0"), val = bool(false)];
            tensor<int32, [4]> transpose_66_perm_0 = const()[name = string("transpose_66_perm_0"), val = tensor<int32, [4]>([0, 2, -3, -1])];
            tensor<int32, [4]> transpose_67_perm_0 = const()[name = string("transpose_67_perm_0"), val = tensor<int32, [4]>([0, 2, -3, -1])];
            tensor<fp16, [1, 6, 257, 64]> transpose_67 = transpose(perm = transpose_67_perm_0, x = var_688_cast_fp16)[name = string("transpose_81")];
            tensor<fp16, [1, 6, 257, 64]> transpose_66 = transpose(perm = transpose_66_perm_0, x = mul_9_cast_fp16)[name = string("transpose_82")];
            tensor<fp16, [1, 6, 257, 257]> matmul_9_cast_fp16 = matmul(transpose_x = matmul_9_transpose_x_0, transpose_y = matmul_9_transpose_y_0, x = transpose_66, y = transpose_67)[name = string("matmul_9_cast_fp16")];
            int32 softmax_9_axis_0 = const()[name = string("softmax_9_axis_0"), val = int32(-1)];
            tensor<fp16, [1, 6, 257, 257]> softmax_9_cast_fp16 = softmax(axis = softmax_9_axis_0, x = matmul_9_cast_fp16)[name = string("softmax_9_cast_fp16")];
            bool attn_output_19_transpose_x_0 = const()[name = string("attn_output_19_transpose_x_0"), val = bool(false)];
            bool attn_output_19_transpose_y_0 = const()[name = string("attn_output_19_transpose_y_0"), val = bool(false)];
            tensor<fp16, [1, 6, 257, 64]> value_19_cast_fp16 = transpose(perm = value_19_perm_0, x = var_694_cast_fp16)[name = string("transpose_83")];
            tensor<fp16, [1, 6, 257, 64]> attn_output_19_cast_fp16 = matmul(transpose_x = attn_output_19_transpose_x_0, transpose_y = attn_output_19_transpose_y_0, x = softmax_9_cast_fp16, y = value_19_cast_fp16)[name = string("attn_output_19_cast_fp16")];
            tensor<int32, [4]> var_703_perm_0 = const()[name = string("op_703_perm_0"), val = tensor<int32, [4]>([0, 2, 1, 3])];
            tensor<int32, [3]> var_707 = const()[name = string("op_707"), val = tensor<int32, [3]>([1, 257, 384])];
            tensor<fp16, [1, 257, 6, 64]> var_703_cast_fp16 = transpose(perm = var_703_perm_0, x = attn_output_19_cast_fp16)[name = string("transpose_80")];
            tensor<fp16, [1, 257, 384]> input_133_cast_fp16 = reshape(shape = var_707, x = var_703_cast_fp16)[name = string("input_133_cast_fp16")];
            tensor<fp16, [384, 384]> model_encoder_layer_9_attention_output_dense_weight_to_fp16 = const()[name = string("model_encoder_layer_9_attention_output_dense_weight_to_fp16"), val = tensor<fp16, [384, 384]>(BLOBFILE(path = string("@model_path/weights/weight.bin"), offset = uint64(33504448)))];
            tensor<fp16, [384]> model_encoder_layer_9_attention_output_dense_bias_to_fp16 = const()[name = string("model_encoder_layer_9_attention_output_dense_bias_to_fp16"), val = tensor<fp16, [384]>(BLOBFILE(path = string("@model_path/weights/weight.bin"), offset = uint64(33799424)))];
            tensor<fp16, [1, 257, 384]> linear_57_cast_fp16 = linear(bias = model_encoder_layer_9_attention_output_dense_bias_to_fp16, weight = model_encoder_layer_9_attention_output_dense_weight_to_fp16, x = input_133_cast_fp16)[name = string("linear_57_cast_fp16")];
            tensor<fp16, [384]> model_encoder_layer_9_layer_scale1_lambda1_to_fp16 = const()[name = string("model_encoder_layer_9_layer_scale1_lambda1_to_fp16"), val = tensor<fp16, [384]>(BLOBFILE(path = string("@model_path/weights/weight.bin"), offset = uint64(33800256)))];
            tensor<fp16, [1, 257, 384]> self_attention_output_19_cast_fp16 = mul(x = linear_57_cast_fp16, y = model_encoder_layer_9_layer_scale1_lambda1_to_fp16)[name = string("self_attention_output_19_cast_fp16")];
            tensor<fp16, [1, 257, 384]> input_137_cast_fp16 = add(x = self_attention_output_19_cast_fp16, y = input_131_cast_fp16)[name = string("input_137_cast_fp16")];
            tensor<int32, [1]> input_139_axes_0 = const()[name = string("input_139_axes_0"), val = tensor<int32, [1]>([-1])];
            tensor<fp16, [384]> model_encoder_layer_9_norm2_weight_to_fp16 = const()[name = string("model_encoder_layer_9_norm2_weight_to_fp16"), val = tensor<fp16, [384]>(BLOBFILE(path = string("@model_path/weights/weight.bin"), offset = uint64(33801088)))];
            tensor<fp16, [384]> model_encoder_layer_9_norm2_bias_to_fp16 = const()[name = string("model_encoder_layer_9_norm2_bias_to_fp16"), val = tensor<fp16, [384]>(BLOBFILE(path = string("@model_path/weights/weight.bin"), offset = uint64(33801920)))];
            tensor<fp16, [1, 257, 384]> input_139_cast_fp16 = layer_norm(axes = input_139_axes_0, beta = model_encoder_layer_9_norm2_bias_to_fp16, epsilon = var_46_to_fp16, gamma = model_encoder_layer_9_norm2_weight_to_fp16, x = input_137_cast_fp16)[name = string("input_139_cast_fp16")];
            tensor<fp16, [1536, 384]> model_encoder_layer_9_mlp_fc1_weight_to_fp16 = const()[name = string("model_encoder_layer_9_mlp_fc1_weight_to_fp16"), val = tensor<fp16, [1536, 384]>(BLOBFILE(path = string("@model_path/weights/weight.bin"), offset = uint64(33802752)))];
            tensor<fp16, [1536]> model_encoder_layer_9_mlp_fc1_bias_to_fp16 = const()[name = string("model_encoder_layer_9_mlp_fc1_bias_to_fp16"), val = tensor<fp16, [1536]>(BLOBFILE(path = string("@model_path/weights/weight.bin"), offset = uint64(34982464)))];
            tensor<fp16, [1, 257, 1536]> linear_58_cast_fp16 = linear(bias = model_encoder_layer_9_mlp_fc1_bias_to_fp16, weight = model_encoder_layer_9_mlp_fc1_weight_to_fp16, x = input_139_cast_fp16)[name = string("linear_58_cast_fp16")];
            string input_143_mode_0 = const()[name = string("input_143_mode_0"), val = string("EXACT")];
            tensor<fp16, [1, 257, 1536]> input_143_cast_fp16 = gelu(mode = input_143_mode_0, x = linear_58_cast_fp16)[name = string("input_143_cast_fp16")];
            tensor<fp16, [384, 1536]> model_encoder_layer_9_mlp_fc2_weight_to_fp16 = const()[name = string("model_encoder_layer_9_mlp_fc2_weight_to_fp16"), val = tensor<fp16, [384, 1536]>(BLOBFILE(path = string("@model_path/weights/weight.bin"), offset = uint64(34985600)))];
            tensor<fp16, [384]> model_encoder_layer_9_mlp_fc2_bias_to_fp16 = const()[name = string("model_encoder_layer_9_mlp_fc2_bias_to_fp16"), val = tensor<fp16, [384]>(BLOBFILE(path = string("@model_path/weights/weight.bin"), offset = uint64(36165312)))];
            tensor<fp16, [1, 257, 384]> linear_59_cast_fp16 = linear(bias = model_encoder_layer_9_mlp_fc2_bias_to_fp16, weight = model_encoder_layer_9_mlp_fc2_weight_to_fp16, x = input_143_cast_fp16)[name = string("linear_59_cast_fp16")];
            tensor<fp16, [384]> model_encoder_layer_9_layer_scale2_lambda1_to_fp16 = const()[name = string("model_encoder_layer_9_layer_scale2_lambda1_to_fp16"), val = tensor<fp16, [384]>(BLOBFILE(path = string("@model_path/weights/weight.bin"), offset = uint64(36166144)))];
            tensor<fp16, [1, 257, 384]> layer_output_19_cast_fp16 = mul(x = linear_59_cast_fp16, y = model_encoder_layer_9_layer_scale2_lambda1_to_fp16)[name = string("layer_output_19_cast_fp16")];
            tensor<fp16, [1, 257, 384]> input_145_cast_fp16 = add(x = layer_output_19_cast_fp16, y = input_137_cast_fp16)[name = string("input_145_cast_fp16")];
            tensor<int32, [1]> hidden_states_21_axes_0 = const()[name = string("hidden_states_21_axes_0"), val = tensor<int32, [1]>([-1])];
            tensor<fp16, [384]> model_encoder_layer_10_norm1_weight_to_fp16 = const()[name = string("model_encoder_layer_10_norm1_weight_to_fp16"), val = tensor<fp16, [384]>(BLOBFILE(path = string("@model_path/weights/weight.bin"), offset = uint64(36166976)))];
            tensor<fp16, [384]> model_encoder_layer_10_norm1_bias_to_fp16 = const()[name = string("model_encoder_layer_10_norm1_bias_to_fp16"), val = tensor<fp16, [384]>(BLOBFILE(path = string("@model_path/weights/weight.bin"), offset = uint64(36167808)))];
            tensor<fp16, [1, 257, 384]> hidden_states_21_cast_fp16 = layer_norm(axes = hidden_states_21_axes_0, beta = model_encoder_layer_10_norm1_bias_to_fp16, epsilon = var_46_to_fp16, gamma = model_encoder_layer_10_norm1_weight_to_fp16, x = input_145_cast_fp16)[name = string("hidden_states_21_cast_fp16")];
            tensor<fp16, [384, 384]> model_encoder_layer_10_attention_attention_key_weight_to_fp16 = const()[name = string("model_encoder_layer_10_attention_attention_key_weight_to_fp16"), val = tensor<fp16, [384, 384]>(BLOBFILE(path = string("@model_path/weights/weight.bin"), offset = uint64(36168640)))];
            tensor<fp16, [384]> model_encoder_layer_10_attention_attention_key_bias_to_fp16 = const()[name = string("model_encoder_layer_10_attention_attention_key_bias_to_fp16"), val = tensor<fp16, [384]>(BLOBFILE(path = string("@model_path/weights/weight.bin"), offset = uint64(36463616)))];
            tensor<fp16, [1, 257, 384]> linear_60_cast_fp16 = linear(bias = model_encoder_layer_10_attention_attention_key_bias_to_fp16, weight = model_encoder_layer_10_attention_attention_key_weight_to_fp16, x = hidden_states_21_cast_fp16)[name = string("linear_60_cast_fp16")];
            tensor<int32, [4]> var_752 = const()[name = string("op_752"), val = tensor<int32, [4]>([1, -1, 6, 64])];
            tensor<fp16, [1, 257, 6, 64]> var_753_cast_fp16 = reshape(shape = var_752, x = linear_60_cast_fp16)[name = string("op_753_cast_fp16")];
            tensor<fp16, [384, 384]> model_encoder_layer_10_attention_attention_value_weight_to_fp16 = const()[name = string("model_encoder_layer_10_attention_attention_value_weight_to_fp16"), val = tensor<fp16, [384, 384]>(BLOBFILE(path = string("@model_path/weights/weight.bin"), offset = uint64(36464448)))];
            tensor<fp16, [384]> model_encoder_layer_10_attention_attention_value_bias_to_fp16 = const()[name = string("model_encoder_layer_10_attention_attention_value_bias_to_fp16"), val = tensor<fp16, [384]>(BLOBFILE(path = string("@model_path/weights/weight.bin"), offset = uint64(36759424)))];
            tensor<fp16, [1, 257, 384]> linear_61_cast_fp16 = linear(bias = model_encoder_layer_10_attention_attention_value_bias_to_fp16, weight = model_encoder_layer_10_attention_attention_value_weight_to_fp16, x = hidden_states_21_cast_fp16)[name = string("linear_61_cast_fp16")];
            tensor<int32, [4]> var_758 = const()[name = string("op_758"), val = tensor<int32, [4]>([1, -1, 6, 64])];
            tensor<fp16, [1, 257, 6, 64]> var_759_cast_fp16 = reshape(shape = var_758, x = linear_61_cast_fp16)[name = string("op_759_cast_fp16")];
            tensor<int32, [4]> value_21_perm_0 = const()[name = string("value_21_perm_0"), val = tensor<int32, [4]>([0, 2, 1, 3])];
            tensor<fp16, [384, 384]> model_encoder_layer_10_attention_attention_query_weight_to_fp16 = const()[name = string("model_encoder_layer_10_attention_attention_query_weight_to_fp16"), val = tensor<fp16, [384, 384]>(BLOBFILE(path = string("@model_path/weights/weight.bin"), offset = uint64(36760256)))];
            tensor<fp16, [384]> model_encoder_layer_10_attention_attention_query_bias_to_fp16 = const()[name = string("model_encoder_layer_10_attention_attention_query_bias_to_fp16"), val = tensor<fp16, [384]>(BLOBFILE(path = string("@model_path/weights/weight.bin"), offset = uint64(37055232)))];
            tensor<fp16, [1, 257, 384]> linear_62_cast_fp16 = linear(bias = model_encoder_layer_10_attention_attention_query_bias_to_fp16, weight = model_encoder_layer_10_attention_attention_query_weight_to_fp16, x = hidden_states_21_cast_fp16)[name = string("linear_62_cast_fp16")];
            tensor<int32, [4]> var_764 = const()[name = string("op_764"), val = tensor<int32, [4]>([1, -1, 6, 64])];
            tensor<fp16, [1, 257, 6, 64]> var_765_cast_fp16 = reshape(shape = var_764, x = linear_62_cast_fp16)[name = string("op_765_cast_fp16")];
            tensor<fp16, [1, 257, 6, 64]> mul_10_cast_fp16 = mul(x = var_765_cast_fp16, y = var_57_to_fp16)[name = string("mul_10_cast_fp16")];
            bool matmul_10_transpose_y_0 = const()[name = string("matmul_10_transpose_y_0"), val = bool(true)];
            bool matmul_10_transpose_x_0 = const()[name = string("matmul_10_transpose_x_0"), val = bool(false)];
            tensor<int32, [4]> transpose_68_perm_0 = const()[name = string("transpose_68_perm_0"), val = tensor<int32, [4]>([0, 2, -3, -1])];
            tensor<int32, [4]> transpose_69_perm_0 = const()[name = string("transpose_69_perm_0"), val = tensor<int32, [4]>([0, 2, -3, -1])];
            tensor<fp16, [1, 6, 257, 64]> transpose_69 = transpose(perm = transpose_69_perm_0, x = var_753_cast_fp16)[name = string("transpose_77")];
            tensor<fp16, [1, 6, 257, 64]> transpose_68 = transpose(perm = transpose_68_perm_0, x = mul_10_cast_fp16)[name = string("transpose_78")];
            tensor<fp16, [1, 6, 257, 257]> matmul_10_cast_fp16 = matmul(transpose_x = matmul_10_transpose_x_0, transpose_y = matmul_10_transpose_y_0, x = transpose_68, y = transpose_69)[name = string("matmul_10_cast_fp16")];
            int32 softmax_10_axis_0 = const()[name = string("softmax_10_axis_0"), val = int32(-1)];
            tensor<fp16, [1, 6, 257, 257]> softmax_10_cast_fp16 = softmax(axis = softmax_10_axis_0, x = matmul_10_cast_fp16)[name = string("softmax_10_cast_fp16")];
            bool attn_output_21_transpose_x_0 = const()[name = string("attn_output_21_transpose_x_0"), val = bool(false)];
            bool attn_output_21_transpose_y_0 = const()[name = string("attn_output_21_transpose_y_0"), val = bool(false)];
            tensor<fp16, [1, 6, 257, 64]> value_21_cast_fp16 = transpose(perm = value_21_perm_0, x = var_759_cast_fp16)[name = string("transpose_79")];
            tensor<fp16, [1, 6, 257, 64]> attn_output_21_cast_fp16 = matmul(transpose_x = attn_output_21_transpose_x_0, transpose_y = attn_output_21_transpose_y_0, x = softmax_10_cast_fp16, y = value_21_cast_fp16)[name = string("attn_output_21_cast_fp16")];
            tensor<int32, [4]> var_768_perm_0 = const()[name = string("op_768_perm_0"), val = tensor<int32, [4]>([0, 2, 1, 3])];
            tensor<int32, [3]> var_772 = const()[name = string("op_772"), val = tensor<int32, [3]>([1, 257, 384])];
            tensor<fp16, [1, 257, 6, 64]> var_768_cast_fp16 = transpose(perm = var_768_perm_0, x = attn_output_21_cast_fp16)[name = string("transpose_76")];
            tensor<fp16, [1, 257, 384]> input_147_cast_fp16 = reshape(shape = var_772, x = var_768_cast_fp16)[name = string("input_147_cast_fp16")];
            tensor<fp16, [384, 384]> model_encoder_layer_10_attention_output_dense_weight_to_fp16 = const()[name = string("model_encoder_layer_10_attention_output_dense_weight_to_fp16"), val = tensor<fp16, [384, 384]>(BLOBFILE(path = string("@model_path/weights/weight.bin"), offset = uint64(37056064)))];
            tensor<fp16, [384]> model_encoder_layer_10_attention_output_dense_bias_to_fp16 = const()[name = string("model_encoder_layer_10_attention_output_dense_bias_to_fp16"), val = tensor<fp16, [384]>(BLOBFILE(path = string("@model_path/weights/weight.bin"), offset = uint64(37351040)))];
            tensor<fp16, [1, 257, 384]> linear_63_cast_fp16 = linear(bias = model_encoder_layer_10_attention_output_dense_bias_to_fp16, weight = model_encoder_layer_10_attention_output_dense_weight_to_fp16, x = input_147_cast_fp16)[name = string("linear_63_cast_fp16")];
            tensor<fp16, [384]> model_encoder_layer_10_layer_scale1_lambda1_to_fp16 = const()[name = string("model_encoder_layer_10_layer_scale1_lambda1_to_fp16"), val = tensor<fp16, [384]>(BLOBFILE(path = string("@model_path/weights/weight.bin"), offset = uint64(37351872)))];
            tensor<fp16, [1, 257, 384]> self_attention_output_21_cast_fp16 = mul(x = linear_63_cast_fp16, y = model_encoder_layer_10_layer_scale1_lambda1_to_fp16)[name = string("self_attention_output_21_cast_fp16")];
            tensor<fp16, [1, 257, 384]> input_151_cast_fp16 = add(x = self_attention_output_21_cast_fp16, y = input_145_cast_fp16)[name = string("input_151_cast_fp16")];
            tensor<int32, [1]> input_153_axes_0 = const()[name = string("input_153_axes_0"), val = tensor<int32, [1]>([-1])];
            tensor<fp16, [384]> model_encoder_layer_10_norm2_weight_to_fp16 = const()[name = string("model_encoder_layer_10_norm2_weight_to_fp16"), val = tensor<fp16, [384]>(BLOBFILE(path = string("@model_path/weights/weight.bin"), offset = uint64(37352704)))];
            tensor<fp16, [384]> model_encoder_layer_10_norm2_bias_to_fp16 = const()[name = string("model_encoder_layer_10_norm2_bias_to_fp16"), val = tensor<fp16, [384]>(BLOBFILE(path = string("@model_path/weights/weight.bin"), offset = uint64(37353536)))];
            tensor<fp16, [1, 257, 384]> input_153_cast_fp16 = layer_norm(axes = input_153_axes_0, beta = model_encoder_layer_10_norm2_bias_to_fp16, epsilon = var_46_to_fp16, gamma = model_encoder_layer_10_norm2_weight_to_fp16, x = input_151_cast_fp16)[name = string("input_153_cast_fp16")];
            tensor<fp16, [1536, 384]> model_encoder_layer_10_mlp_fc1_weight_to_fp16 = const()[name = string("model_encoder_layer_10_mlp_fc1_weight_to_fp16"), val = tensor<fp16, [1536, 384]>(BLOBFILE(path = string("@model_path/weights/weight.bin"), offset = uint64(37354368)))];
            tensor<fp16, [1536]> model_encoder_layer_10_mlp_fc1_bias_to_fp16 = const()[name = string("model_encoder_layer_10_mlp_fc1_bias_to_fp16"), val = tensor<fp16, [1536]>(BLOBFILE(path = string("@model_path/weights/weight.bin"), offset = uint64(38534080)))];
            tensor<fp16, [1, 257, 1536]> linear_64_cast_fp16 = linear(bias = model_encoder_layer_10_mlp_fc1_bias_to_fp16, weight = model_encoder_layer_10_mlp_fc1_weight_to_fp16, x = input_153_cast_fp16)[name = string("linear_64_cast_fp16")];
            string input_157_mode_0 = const()[name = string("input_157_mode_0"), val = string("EXACT")];
            tensor<fp16, [1, 257, 1536]> input_157_cast_fp16 = gelu(mode = input_157_mode_0, x = linear_64_cast_fp16)[name = string("input_157_cast_fp16")];
            tensor<fp16, [384, 1536]> model_encoder_layer_10_mlp_fc2_weight_to_fp16 = const()[name = string("model_encoder_layer_10_mlp_fc2_weight_to_fp16"), val = tensor<fp16, [384, 1536]>(BLOBFILE(path = string("@model_path/weights/weight.bin"), offset = uint64(38537216)))];
            tensor<fp16, [384]> model_encoder_layer_10_mlp_fc2_bias_to_fp16 = const()[name = string("model_encoder_layer_10_mlp_fc2_bias_to_fp16"), val = tensor<fp16, [384]>(BLOBFILE(path = string("@model_path/weights/weight.bin"), offset = uint64(39716928)))];
            tensor<fp16, [1, 257, 384]> linear_65_cast_fp16 = linear(bias = model_encoder_layer_10_mlp_fc2_bias_to_fp16, weight = model_encoder_layer_10_mlp_fc2_weight_to_fp16, x = input_157_cast_fp16)[name = string("linear_65_cast_fp16")];
            tensor<fp16, [384]> model_encoder_layer_10_layer_scale2_lambda1_to_fp16 = const()[name = string("model_encoder_layer_10_layer_scale2_lambda1_to_fp16"), val = tensor<fp16, [384]>(BLOBFILE(path = string("@model_path/weights/weight.bin"), offset = uint64(39717760)))];
            tensor<fp16, [1, 257, 384]> layer_output_21_cast_fp16 = mul(x = linear_65_cast_fp16, y = model_encoder_layer_10_layer_scale2_lambda1_to_fp16)[name = string("layer_output_21_cast_fp16")];
            tensor<fp16, [1, 257, 384]> input_159_cast_fp16 = add(x = layer_output_21_cast_fp16, y = input_151_cast_fp16)[name = string("input_159_cast_fp16")];
            tensor<int32, [1]> hidden_states_axes_0 = const()[name = string("hidden_states_axes_0"), val = tensor<int32, [1]>([-1])];
            tensor<fp16, [384]> model_encoder_layer_11_norm1_weight_to_fp16 = const()[name = string("model_encoder_layer_11_norm1_weight_to_fp16"), val = tensor<fp16, [384]>(BLOBFILE(path = string("@model_path/weights/weight.bin"), offset = uint64(39718592)))];
            tensor<fp16, [384]> model_encoder_layer_11_norm1_bias_to_fp16 = const()[name = string("model_encoder_layer_11_norm1_bias_to_fp16"), val = tensor<fp16, [384]>(BLOBFILE(path = string("@model_path/weights/weight.bin"), offset = uint64(39719424)))];
            tensor<fp16, [1, 257, 384]> hidden_states_cast_fp16 = layer_norm(axes = hidden_states_axes_0, beta = model_encoder_layer_11_norm1_bias_to_fp16, epsilon = var_46_to_fp16, gamma = model_encoder_layer_11_norm1_weight_to_fp16, x = input_159_cast_fp16)[name = string("hidden_states_cast_fp16")];
            tensor<fp16, [384, 384]> model_encoder_layer_11_attention_attention_key_weight_to_fp16 = const()[name = string("model_encoder_layer_11_attention_attention_key_weight_to_fp16"), val = tensor<fp16, [384, 384]>(BLOBFILE(path = string("@model_path/weights/weight.bin"), offset = uint64(39720256)))];
            tensor<fp16, [384]> model_encoder_layer_11_attention_attention_key_bias_to_fp16 = const()[name = string("model_encoder_layer_11_attention_attention_key_bias_to_fp16"), val = tensor<fp16, [384]>(BLOBFILE(path = string("@model_path/weights/weight.bin"), offset = uint64(40015232)))];
            tensor<fp16, [1, 257, 384]> linear_66_cast_fp16 = linear(bias = model_encoder_layer_11_attention_attention_key_bias_to_fp16, weight = model_encoder_layer_11_attention_attention_key_weight_to_fp16, x = hidden_states_cast_fp16)[name = string("linear_66_cast_fp16")];
            tensor<int32, [4]> var_817 = const()[name = string("op_817"), val = tensor<int32, [4]>([1, -1, 6, 64])];
            tensor<fp16, [1, 257, 6, 64]> var_818_cast_fp16 = reshape(shape = var_817, x = linear_66_cast_fp16)[name = string("op_818_cast_fp16")];
            tensor<fp16, [384, 384]> model_encoder_layer_11_attention_attention_value_weight_to_fp16 = const()[name = string("model_encoder_layer_11_attention_attention_value_weight_to_fp16"), val = tensor<fp16, [384, 384]>(BLOBFILE(path = string("@model_path/weights/weight.bin"), offset = uint64(40016064)))];
            tensor<fp16, [384]> model_encoder_layer_11_attention_attention_value_bias_to_fp16 = const()[name = string("model_encoder_layer_11_attention_attention_value_bias_to_fp16"), val = tensor<fp16, [384]>(BLOBFILE(path = string("@model_path/weights/weight.bin"), offset = uint64(40311040)))];
            tensor<fp16, [1, 257, 384]> linear_67_cast_fp16 = linear(bias = model_encoder_layer_11_attention_attention_value_bias_to_fp16, weight = model_encoder_layer_11_attention_attention_value_weight_to_fp16, x = hidden_states_cast_fp16)[name = string("linear_67_cast_fp16")];
            tensor<int32, [4]> var_823 = const()[name = string("op_823"), val = tensor<int32, [4]>([1, -1, 6, 64])];
            tensor<fp16, [1, 257, 6, 64]> var_824_cast_fp16 = reshape(shape = var_823, x = linear_67_cast_fp16)[name = string("op_824_cast_fp16")];
            tensor<int32, [4]> value_23_perm_0 = const()[name = string("value_23_perm_0"), val = tensor<int32, [4]>([0, 2, 1, 3])];
            tensor<fp16, [384, 384]> model_encoder_layer_11_attention_attention_query_weight_to_fp16 = const()[name = string("model_encoder_layer_11_attention_attention_query_weight_to_fp16"), val = tensor<fp16, [384, 384]>(BLOBFILE(path = string("@model_path/weights/weight.bin"), offset = uint64(40311872)))];
            tensor<fp16, [384]> model_encoder_layer_11_attention_attention_query_bias_to_fp16 = const()[name = string("model_encoder_layer_11_attention_attention_query_bias_to_fp16"), val = tensor<fp16, [384]>(BLOBFILE(path = string("@model_path/weights/weight.bin"), offset = uint64(40606848)))];
            tensor<fp16, [1, 257, 384]> linear_68_cast_fp16 = linear(bias = model_encoder_layer_11_attention_attention_query_bias_to_fp16, weight = model_encoder_layer_11_attention_attention_query_weight_to_fp16, x = hidden_states_cast_fp16)[name = string("linear_68_cast_fp16")];
            tensor<int32, [4]> var_829 = const()[name = string("op_829"), val = tensor<int32, [4]>([1, -1, 6, 64])];
            tensor<fp16, [1, 257, 6, 64]> var_830_cast_fp16 = reshape(shape = var_829, x = linear_68_cast_fp16)[name = string("op_830_cast_fp16")];
            tensor<fp16, [1, 257, 6, 64]> mul_11_cast_fp16 = mul(x = var_830_cast_fp16, y = var_57_to_fp16)[name = string("mul_11_cast_fp16")];
            bool matmul_11_transpose_y_0 = const()[name = string("matmul_11_transpose_y_0"), val = bool(true)];
            bool matmul_11_transpose_x_0 = const()[name = string("matmul_11_transpose_x_0"), val = bool(false)];
            tensor<int32, [4]> transpose_70_perm_0 = const()[name = string("transpose_70_perm_0"), val = tensor<int32, [4]>([0, 2, -3, -1])];
            tensor<int32, [4]> transpose_71_perm_0 = const()[name = string("transpose_71_perm_0"), val = tensor<int32, [4]>([0, 2, -3, -1])];
            tensor<fp16, [1, 6, 257, 64]> transpose_71 = transpose(perm = transpose_71_perm_0, x = var_818_cast_fp16)[name = string("transpose_73")];
            tensor<fp16, [1, 6, 257, 64]> transpose_70 = transpose(perm = transpose_70_perm_0, x = mul_11_cast_fp16)[name = string("transpose_74")];
            tensor<fp16, [1, 6, 257, 257]> matmul_11_cast_fp16 = matmul(transpose_x = matmul_11_transpose_x_0, transpose_y = matmul_11_transpose_y_0, x = transpose_70, y = transpose_71)[name = string("matmul_11_cast_fp16")];
            int32 softmax_11_axis_0 = const()[name = string("softmax_11_axis_0"), val = int32(-1)];
            tensor<fp16, [1, 6, 257, 257]> softmax_11_cast_fp16 = softmax(axis = softmax_11_axis_0, x = matmul_11_cast_fp16)[name = string("softmax_11_cast_fp16")];
            bool attn_output_transpose_x_0 = const()[name = string("attn_output_transpose_x_0"), val = bool(false)];
            bool attn_output_transpose_y_0 = const()[name = string("attn_output_transpose_y_0"), val = bool(false)];
            tensor<fp16, [1, 6, 257, 64]> value_23_cast_fp16 = transpose(perm = value_23_perm_0, x = var_824_cast_fp16)[name = string("transpose_75")];
            tensor<fp16, [1, 6, 257, 64]> attn_output_cast_fp16 = matmul(transpose_x = attn_output_transpose_x_0, transpose_y = attn_output_transpose_y_0, x = softmax_11_cast_fp16, y = value_23_cast_fp16)[name = string("attn_output_cast_fp16")];
            tensor<int32, [4]> var_833_perm_0 = const()[name = string("op_833_perm_0"), val = tensor<int32, [4]>([0, 2, 1, 3])];
            tensor<int32, [3]> var_837 = const()[name = string("op_837"), val = tensor<int32, [3]>([1, 257, 384])];
            tensor<fp16, [1, 257, 6, 64]> var_833_cast_fp16 = transpose(perm = var_833_perm_0, x = attn_output_cast_fp16)[name = string("transpose_72")];
            tensor<fp16, [1, 257, 384]> input_161_cast_fp16 = reshape(shape = var_837, x = var_833_cast_fp16)[name = string("input_161_cast_fp16")];
            tensor<fp16, [384, 384]> model_encoder_layer_11_attention_output_dense_weight_to_fp16 = const()[name = string("model_encoder_layer_11_attention_output_dense_weight_to_fp16"), val = tensor<fp16, [384, 384]>(BLOBFILE(path = string("@model_path/weights/weight.bin"), offset = uint64(40607680)))];
            tensor<fp16, [384]> model_encoder_layer_11_attention_output_dense_bias_to_fp16 = const()[name = string("model_encoder_layer_11_attention_output_dense_bias_to_fp16"), val = tensor<fp16, [384]>(BLOBFILE(path = string("@model_path/weights/weight.bin"), offset = uint64(40902656)))];
            tensor<fp16, [1, 257, 384]> linear_69_cast_fp16 = linear(bias = model_encoder_layer_11_attention_output_dense_bias_to_fp16, weight = model_encoder_layer_11_attention_output_dense_weight_to_fp16, x = input_161_cast_fp16)[name = string("linear_69_cast_fp16")];
            tensor<fp16, [384]> model_encoder_layer_11_layer_scale1_lambda1_to_fp16 = const()[name = string("model_encoder_layer_11_layer_scale1_lambda1_to_fp16"), val = tensor<fp16, [384]>(BLOBFILE(path = string("@model_path/weights/weight.bin"), offset = uint64(40903488)))];
            tensor<fp16, [1, 257, 384]> self_attention_output_cast_fp16 = mul(x = linear_69_cast_fp16, y = model_encoder_layer_11_layer_scale1_lambda1_to_fp16)[name = string("self_attention_output_cast_fp16")];
            tensor<fp16, [1, 257, 384]> input_165_cast_fp16 = add(x = self_attention_output_cast_fp16, y = input_159_cast_fp16)[name = string("input_165_cast_fp16")];
            tensor<int32, [1]> input_167_axes_0 = const()[name = string("input_167_axes_0"), val = tensor<int32, [1]>([-1])];
            tensor<fp16, [384]> model_encoder_layer_11_norm2_weight_to_fp16 = const()[name = string("model_encoder_layer_11_norm2_weight_to_fp16"), val = tensor<fp16, [384]>(BLOBFILE(path = string("@model_path/weights/weight.bin"), offset = uint64(40904320)))];
            tensor<fp16, [384]> model_encoder_layer_11_norm2_bias_to_fp16 = const()[name = string("model_encoder_layer_11_norm2_bias_to_fp16"), val = tensor<fp16, [384]>(BLOBFILE(path = string("@model_path/weights/weight.bin"), offset = uint64(40905152)))];
            tensor<fp16, [1, 257, 384]> input_167_cast_fp16 = layer_norm(axes = input_167_axes_0, beta = model_encoder_layer_11_norm2_bias_to_fp16, epsilon = var_46_to_fp16, gamma = model_encoder_layer_11_norm2_weight_to_fp16, x = input_165_cast_fp16)[name = string("input_167_cast_fp16")];
            tensor<fp16, [1536, 384]> model_encoder_layer_11_mlp_fc1_weight_to_fp16 = const()[name = string("model_encoder_layer_11_mlp_fc1_weight_to_fp16"), val = tensor<fp16, [1536, 384]>(BLOBFILE(path = string("@model_path/weights/weight.bin"), offset = uint64(40905984)))];
            tensor<fp16, [1536]> model_encoder_layer_11_mlp_fc1_bias_to_fp16 = const()[name = string("model_encoder_layer_11_mlp_fc1_bias_to_fp16"), val = tensor<fp16, [1536]>(BLOBFILE(path = string("@model_path/weights/weight.bin"), offset = uint64(42085696)))];
            tensor<fp16, [1, 257, 1536]> linear_70_cast_fp16 = linear(bias = model_encoder_layer_11_mlp_fc1_bias_to_fp16, weight = model_encoder_layer_11_mlp_fc1_weight_to_fp16, x = input_167_cast_fp16)[name = string("linear_70_cast_fp16")];
            string input_171_mode_0 = const()[name = string("input_171_mode_0"), val = string("EXACT")];
            tensor<fp16, [1, 257, 1536]> input_171_cast_fp16 = gelu(mode = input_171_mode_0, x = linear_70_cast_fp16)[name = string("input_171_cast_fp16")];
            tensor<fp16, [384, 1536]> model_encoder_layer_11_mlp_fc2_weight_to_fp16 = const()[name = string("model_encoder_layer_11_mlp_fc2_weight_to_fp16"), val = tensor<fp16, [384, 1536]>(BLOBFILE(path = string("@model_path/weights/weight.bin"), offset = uint64(42088832)))];
            tensor<fp16, [384]> model_encoder_layer_11_mlp_fc2_bias_to_fp16 = const()[name = string("model_encoder_layer_11_mlp_fc2_bias_to_fp16"), val = tensor<fp16, [384]>(BLOBFILE(path = string("@model_path/weights/weight.bin"), offset = uint64(43268544)))];
            tensor<fp16, [1, 257, 384]> linear_71_cast_fp16 = linear(bias = model_encoder_layer_11_mlp_fc2_bias_to_fp16, weight = model_encoder_layer_11_mlp_fc2_weight_to_fp16, x = input_171_cast_fp16)[name = string("linear_71_cast_fp16")];
            tensor<fp16, [384]> model_encoder_layer_11_layer_scale2_lambda1_to_fp16 = const()[name = string("model_encoder_layer_11_layer_scale2_lambda1_to_fp16"), val = tensor<fp16, [384]>(BLOBFILE(path = string("@model_path/weights/weight.bin"), offset = uint64(43269376)))];
            tensor<fp16, [1, 257, 384]> layer_output_cast_fp16 = mul(x = linear_71_cast_fp16, y = model_encoder_layer_11_layer_scale2_lambda1_to_fp16)[name = string("layer_output_cast_fp16")];
            tensor<fp16, [1, 257, 384]> input_cast_fp16 = add(x = layer_output_cast_fp16, y = input_165_cast_fp16)[name = string("input_cast_fp16")];
            tensor<int32, [1]> var_869_axes_0 = const()[name = string("op_869_axes_0"), val = tensor<int32, [1]>([-1])];
            tensor<fp16, [384]> model_layernorm_weight_to_fp16 = const()[name = string("model_layernorm_weight_to_fp16"), val = tensor<fp16, [384]>(BLOBFILE(path = string("@model_path/weights/weight.bin"), offset = uint64(43270208)))];
            tensor<fp16, [384]> model_layernorm_bias_to_fp16 = const()[name = string("model_layernorm_bias_to_fp16"), val = tensor<fp16, [384]>(BLOBFILE(path = string("@model_path/weights/weight.bin"), offset = uint64(43271040)))];
            fp16 var_864_to_fp16 = const()[name = string("op_864_to_fp16"), val = fp16(0x1.1p-20)];
            tensor<fp16, [1, 257, 384]> var_869_cast_fp16 = layer_norm(axes = var_869_axes_0, beta = model_layernorm_bias_to_fp16, epsilon = var_864_to_fp16, gamma = model_layernorm_weight_to_fp16, x = input_cast_fp16)[name = string("op_869_cast_fp16")];
            tensor<int32, [3]> var_877_begin_0 = const()[name = string("op_877_begin_0"), val = tensor<int32, [3]>([0, 0, 0])];
            tensor<int32, [3]> var_877_end_0 = const()[name = string("op_877_end_0"), val = tensor<int32, [3]>([1, 1, 384])];
            tensor<bool, [3]> var_877_end_mask_0 = const()[name = string("op_877_end_mask_0"), val = tensor<bool, [3]>([true, false, true])];
            tensor<bool, [3]> var_877_squeeze_mask_0 = const()[name = string("op_877_squeeze_mask_0"), val = tensor<bool, [3]>([false, true, false])];
            tensor<fp16, [1, 384]> var_877_cast_fp16 = slice_by_index(begin = var_877_begin_0, end = var_877_end_0, end_mask = var_877_end_mask_0, squeeze_mask = var_877_squeeze_mask_0, x = var_869_cast_fp16)[name = string("op_877_cast_fp16")];
            string var_882_cast_fp16_to_fp32_dtype_0 = const()[name = string("op_882_cast_fp16_to_fp32_dtype_0"), val = string("fp32")];
            tensor<fp32, [1, 384]> embedding = cast(dtype = var_882_cast_fp16_to_fp32_dtype_0, x = var_877_cast_fp16)[name = string("cast_49")];
        } -> (embedding);
}